Saved_models/MatchNN_200_200_2_0.pth (torch_old, 351605 bytes, 18 tensors)

lin_layers.0.weight f4 [200, 24]
00000000: 76bf 893e 0567 94bd 7838 29bf c920 d43c
00000010: 52bc af3e e579 a3bc 09ca e43d 00b2 e93e
00000020: f2b6 56bd f6e4 d43e 282f 86be d9be 483e
00000030: 52c3 8e3b 3144 c53d 6489 fe3d 63d7 de3d
00000040: 63f2 6ebe ee6c a33c aeb0 6abe d3a7 023e
00000050: 4221 0ebf 7c17 3c3c c8c6 03bd 58b9 373b
00000060: ff49 0d3e dbb4 4b3e 5f8f e03d 558c 2a3e
00000070: 55b3 823e 8785 c8bd 1d20 ccbd 1135 223e
00000080: 0d09 2bbe 97eb db3e e216 65be 872e eb3e
00000090: 0c6a cdbe 6865 0fbf d039 aa3e 8642 123e
000000a0: c050 263e e210 3fbc 5194 6abe cf64 acbd
000000b0: 9837 5a3e 1c28 353e 11dc d3bd 4d60 48be
000000c0: 8ec0 21bd c396 97bc 2298 613e c03e 3fbe
000000d0: c81d 393e f51b 0bbe 8484 87be d575 d73d
000000e0: 4a26 63bd 9170 16bf f995 253e 42e8 a03e
000000f0: 76d7 b3be 70fc 23bf ab26 91bd 12f3 993d
00000100: dace a03e ffa1 1a3f ac7a 3b3e 128a 96be
00000110: a613 723e ce05 d83d 8e30 aebd ce93 533e
00000120: 917b 5dbd 7662 6e3d 7601 0c3e 54f1 8b3e
00000130: 2510 453e fd56 6cbe 91ff a8bc 5f05 75be
00000140: 9ef2 1dbe 3031 823e 29af 39bf c40f e0be
00000150: 5578 b3be 5e9e dcbe 6f4b 883e 91bb 9dbe
00000160: 2672 73be 49d0 193e 78bd 843e aae0 0cbe
00000170: 2e5e 94bd 17af c43d 8a7d c13e f295 3bbd
00000180: f2ac ab3d 5af5 fb3d ce10 98bf e744 7bbd
00000190: 06ae 813c 9f8a a3be 3ce4 3b3d c78c dd3d
000001a0: be35 90be c254 8e3e cb02 1fbe 3b66 1dbd
000001b0: 6cd7 a13d 9dab 1ebe 7300 713d 0703 20bc
000001c0: 6cd2 73be a570 893c 682a 18be e3e3 b83e
000001d0: c105 0bbe 6b11 3abe ea42 283e 253e 843e
000001e0: 850b d4bc f23e 90be ff7c c73e b4c4 753c
000001f0: 14ab b7be 819b 5b3d 5652 823e 1828 c13e
00000200: d4b8 57be 2df0 a4be fde9 713e f55c a63e
00000210: 4b3f 5abe f732 c13e e6d4 7d3e 72fb cebc
00000220: d4de 5c3e a05a 153d 40ed 26bf 58ba 923e
00000230: ae4e 313d b84b 503d 2caa 383e 4782 5e3e
00000240: ba60 9e3d 5479 a33d 5db1 cb3d 6808 d53e
00000250: 9c94 02bf 5b16 133e 6174 56be 2f1a 783e
00000260: 0b55 c5bd a24f 76be e174 a8bd e9cb 193e
00000270: ab8c dbbe 4db7 9b3d a44d 853e 388e 393e
00000280: 74b3 683e f8fa 993d 4ffe b1be b3be b43e
00000290: adeb 503e e07e 903e 3e12 19bf 1d1a 36be
000002a0: a84e 7e3e 1857 49be 492a 4dbf f17a 24bf
000002b0: 287d a9be 6d16 533d 172b 933d 3078 4fbd
000002c0: e235 41bc 0247 b1be c00c 7abc 1a07 72be
000002d0: 7db4 4c3e d174 10bf a6dc 7c3b b6cd a63e
000002e0: a31b 50be 9d93 723e b1ac 2ebd 54a2 8ebe
000002f0: 1470 e4bd 417c 133e 0ee7 e73e 63f9 693d
00000300: 71e6 e5bd d27d edbd 2207 a13d 3ce4 ccbd
00000310: 8d11 ffbe 63c8 b4bd 8ed0 48bb 6cbb cfbf
00000320: ae4d b5bd 0fbd aabd 44a1 ab3c 429d 2dbd
00000330: c7fe ee3b 3048 8f3c 5d1c 943b 8588 f03c
00000340: 9222 06bc 4f1f 443d 6143 de3d 39a0 01be
00000350: 8cbb c13b 372a 3abc 0dd9 413d eb77 52bb
00000360: 6d6d 493e 91cf 16bd 9586 1e3e 9843 31bd
00000370: 59bd d6be 2f19 7f3f 15d6 43bf 26ce ddbb
00000380: 54d7 c1bc f14d e7be 2802 723e 56b6 c8bd
00000390: 70b5 9dbd b08c 133e 5ae5 323d a611 7fbe
000003a0: 0f75 e9bb eabe ae3e ec0a b73e 969f 873e
000003b0: 8ebc 8a3e b1e5 70be 26c9 a1be a4fc 2dbd
000003c0: 94b7 dd3e f80d 863d 0554 8d3b 2e16 aa3e
000003d0: ff63 0c3d e938 053f 8ea5 a7be a23b 4fbf
000003e0: 8add 513e 89e7 f73d 16d1 483e 1f16 da3e
000003f0: f843 63bf 2fa3 cebd 0bef 623e 21f5 133e
0.26903886 -0.07246212 -0.6610179 0.02589454 0.34323364 -0.019955585 0.11171348 0.45643616
-0.052420564 0.41580933 -0.26207852 0.19604053 0.00435678 0.09632147 0.12428549 0.108809255
-0.2333465 0.019949403 -0.2291896 0.12759332 -0.555195 0.0114802085 -0.032171994 0.0028034057
0.13797759 0.1989321 0.10964846 0.16655095 0.25527444 -0.09791093 -0.099670626 0.15840556
-0.16702671 0.42953178 -0.2237201 0.45933935 -0.4011997 -0.5601411 0.33247232 0.14283189
0.16241741 -0.01166174 -0.2290814 -0.08417665 0.2131027 0.17691082 -0.10344709 -0.19567986
-0.039490275 -0.018504506 0.2203069 -0.18676281 0.18077767 -0.13584884 -0.2646829 0.105205216
-0.055456437 -0.5876551 0.16170491 0.314272 -0.3512532 -0.64057064 -0.070874535 0.07517065
0.31407815 0.60403436 0.18308514 -0.29402214 0.23640308 0.10547982 -0.08505355 0.20661852
-0.05407292 0.05819937 0.13672432 0.27332556 0.1924444 -0.23080058 -0.020629676 -0.2392783
-0.15424582 0.25428152 -0.725329 -0.43762028 -0.35052744 -0.43089575 0.2662005 -0.30807164
-0.23774013 0.1502086 0.25925803 -0.13757578 -0.07244526 0.09603708 0.3779109 -0.045797296
0.08382596 0.123026565 -1.1880128 -0.061345007 0.015830051 -0.31941697 0.045871958 0.10817867
-0.28166002 0.2779904 -0.15528409 -0.038427573 0.079024166 -0.15495153 0.05883832 -0.009766347
-0.23810738 0.016777346 -0.14859927 0.36111364 -0.13576414 -0.18170707 0.16431776 0.25828663
-0.0258844 -0.28173023 0.38962552 0.015000511 -0.3587271 0.053615097 0.25453442 0.37725902
-0.210666 -0.3221449 0.23624416 0.32492796 -0.21313207 0.37734196 0.24788246 -0.025266383
0.21569377 0.03646338 -0.65205765 0.28657794 0.043287925 0.05085346 0.18033665 0.21729384
0.07733293 0.07982126 0.09945939 0.41607976 -0.5100801 0.14363997 -0.20942833 0.24228738
-0.09635361 -0.24053815 -0.08225418 0.15019192 -0.4288076 0.07603321 0.26035798 0.18120658
0.22724706 0.075185716 -0.34764335 0.35301742 0.20402403 0.28221798 -0.5979346 -0.17783399
0.24834692 -0.1966213 -0.8014265 -0.64250094 -0.331033 0.05153506 0.07185953 -0.05065173
-0.011792632 -0.34624487 -0.015261829 -0.23635522 0.19990726 -0.5642825 0.0038583665 0.3257882
-0.20323043 0.23689122 -0.04264516 -0.27858222 -0.1115419 0.14402868 0.45293468 0.0571226
-0.11225594 -0.11596264 0.078626886 -0.1000447 -0.49818078 -0.08827283 -0.0030641886 -1.6229072
-0.08852707 -0.08336841 0.02095092 -0.0423863 0.0072935554 0.017490476 0.0045199827 0.029361973
-0.008186953 0.04788142 0.10852695 -0.12658776 0.00591225 -0.011362604 0.047326136 -0.0032114934
0.19670649 -0.036819045 0.15481026 -0.043277353 -0.41941336 0.996478 -0.7649854 -0.0067689596
-0.023662247 -0.45176652 0.23633635 -0.09800403 -0.07700622 0.14409137 0.043675758 -0.24909076
-0.00712455 0.3413003 0.3575052 0.26488942 0.2709698 -0.2352512 -0.31598777 -0.042477265
0.43304121 0.06545633 0.0043129944 0.33220047 0.03427505 0.52039963 -0.32743496 -0.8095037
0.20494667 0.12104709 0.1961101 0.42595002 -0.8877559 -0.100897186 0.221615 0.14448978

lin_layers.0.bias f4 [200]
00000000: 1124 d93d 2402 b4be dcce 9abe 66a6 5fbe
00000010: 2b6b 9bbe ab25 d0bd 589d 0fbe 44b3 2abe
00000020: b1d3 033f f562 a7be 0c1d d3be 8f0f 06bf
00000030: 739f 3ebe 9355 e53c af96 e7bd 5fc6 05bf
00000040: 8ae3 84be d16f e0bd d4e6 e33b fed2 233e
00000050: 082a a6be 68ed 253b f9c2 92be bbaa e8be
00000060: fcbd c5bd 2613 853d 7384 0dbe 43ce c3be
00000070: 249d bdbe 4740 30be 6e45 3f3c 9808 a53e
00000080: 0d00 65be a6cd 37bf bd60 cfbc 3b4a 5c3e
00000090: b1b1 68be 6da5 20bf 8185 c63d 8736 57be
000000a0: bf04 dabd 6f26 1ebf f5aa 14bf d493 77be
000000b0: 636d 74be ae53 b0be 546f c43e 8344 5bbe
000000c0: b0be edbd 5878 9fbe 602c 36be e659 3c3e
000000d0: 7b7d e0bd 1c85 32be 2563 cabd 4ae1 8fbe
000000e0: 1f0b 04be 8381 043e b82b 25be 5531 65be
000000f0: 14df c4be 9bae 96bc 1032 213d 7829 78be
00000100: 5e6c 3dbe f4cf 0e3e 5be9 91be 46b0 eebd
00000110: c54a 023f 7ec2 9fbd a5f1 7cbe edb8 383e
00000120: 83bc 203e 7826 47be 12fa bdbe 4693 efbd
00000130: 1527 a1be 190a bdbe 83ee 1bbf 1d75 d03d
00000140: a66e 08bf f4cd a5bd 2d3a ddbe 94c8 09be
00000150: 992a 96be 004b cc3d 62cc 1ebf 316a a7be
00000160: 7376 02bf 2433 713e 89f8 69be 2afb ffbd
00000170: d592 97be aabe 69bc 5713 03bf 54f4 e23d
00000180: bd6a 0abe 1754 c0bd ffe2 afbe d043 1ebf
00000190: 2696 0dbe 1c4d 53be 0b67 98bd 28e4 a13b
000001a0: 1c24 38be b3fa 36be b195 f7be 8f71 a3be
000001b0: 6ae3 87be 9a80 26bf 138a f9bd f7d8 9ebe
000001c0: f2aa cfbe 45c4 13bd 699a 4abe ecb0 44be
000001d0: 38c6 16bf a48c d6bd d1e2 52be 116f c93b
000001e0: 6df3 93be 2572 a3be 7c98 81be 00bf c2be
000001f0: 2a39 c3be 28fd bebe a5ba 273e 6426 d7be
00000200: 673f 9bbe fed8 ebbd 5c5b 69be a65a f4be
00000210: 0997 92bd 1cd8 e2bb 0a80 64be d6fa 35be
00000220: 7625 10be f908 9abd dffc 7dbe ba1b 58be
00000230: 3a50 143d 3528 c4be 4e8c 46bd 6902 10bd
00000240: af8f 853d f927 1dbf 461f dfbd ab0e 2fbe
00000250: 7bc8 1bbe abe1 e2be df4a d3be d2ad fcbd
00000260: fe11 c9be 60f7 e13d 53ee b0be a981 c3be
00000270: d940 bdbc 12dc 9abe b48a 85be 8edc a3be
00000280: 847a 40be a43b eebe 718c 82be 9e49 f4be
00000290: e70d 213d 6117 8cbe de70 b1be 0c98 edbe
000002a0: 08ee b6be a3b9 1ebe f2d4 00be f214 2cbf
000002b0: 63ae 25be f01d 37be d711 05be 3654 51bd
000002c0: a6e3 7bbe 5f2e 1f3e 2975 7dbe d9bc 53be
000002d0: 36d6 b9be c555 6ebe 060a f8be 1ab8 babe
000002e0: 0c0b ca3e 7c0a 9abe e7d1 9ebe af6e b0be
000002f0: 269d 6cbe 3ea0 e2be 7f0e 0f3d 8f92 e7ba
00000300: f2f5 01bd 1a59 31be 48da 8ebe 971d 68be
00000310: 8553 8cbe 2f3a ebbd 006c cdbc b59b 88be
0.10602582 -0.35157883 -0.30235946 -0.2184082 -0.303552 -0.101634346 -0.14024866 -0.16669947
0.5149489 -0.32692686 -0.41233099 -0.5236749 -0.18615513 0.027994907 -0.113080375 -0.52255815
-0.2595485 -0.10958827 0.006955007 0.15998456 -0.32453942 0.0025318507 -0.28664377 -0.45442757
-0.09655377 0.06497793 -0.13820057 -0.38243303 -0.3703395 -0.1721202 0.011674268 0.3223312
-0.223633 -0.7179817 -0.025314683 0.21512692 -0.22724034 -0.6275242 0.096934326 -0.21016894
-0.106454365 -0.61777395 -0.5807336 -0.24177486 -0.23869853 -0.34438843 0.38366187 -0.21412854
-0.116086364 -0.31146502 -0.17790365 0.18393669 -0.109614335 -0.1743359 -0.098821916 -0.2810157
-0.12894867 0.1294003 -0.16129959 -0.223821 -0.38451445 -0.018393805 0.039354384 -0.24234569
-0.1849837 0.13946515 -0.2849835 -0.11654715 0.5089534 -0.07800768 -0.24701555 0.18039294
0.15696912 -0.19448268 -0.3710485 -0.11698012 -0.3147513 -0.36921766 -0.60910815 0.101785876
-0.53293836 -0.08095923 -0.43208447 -0.1345542 -0.29329374 0.099752426 -0.62030613 -0.32698205
-0.5096199 0.23554665 -0.22848715 -0.124990776 -0.2960421 -0.014266649 -0.51201385 0.11081758
-0.1351728 -0.09391039 -0.34352872 -0.61822224 -0.13826808 -0.20634884 -0.07441529 0.0049405284
-0.17982525 -0.17869072 -0.48356393 -0.31922576 -0.2654069 -0.6503998 -0.12184539 -0.31024906
-0.40560108 -0.03607585 -0.19785465 -0.19208115 -0.5889621 -0.10476044 -0.20594336 0.0061472734
-0.28896657 -0.31923023 -0.2531165 -0.38036346 -0.3812955 -0.37302518 0.16379793 -0.42021477
-0.3032181 -0.11515997 -0.22788757 -0.4772541 -0.07157714 -0.006922735 -0.22314468 -0.17771468
-0.1407679 -0.07521243 -0.24803494 -0.21104327 0.036209323 -0.38311926 -0.04847365 -0.03515855
0.06521546 -0.6138912 -0.10894637 -0.17095439 -0.15213196 -0.44312796 -0.4126806 -0.12337841
-0.3927154 0.11033511 -0.34556827 -0.3818486 -0.02310221 -0.30246025 -0.26082385 -0.32004207
-0.18796736 -0.46529877 -0.25497773 -0.47712415 0.0393199 -0.27361587 -0.34656423 -0.46405065
-0.35728478 -0.15500502 -0.12581232 -0.6721946 -0.16179805 -0.17882514 -0.12995087 -0.0511057
-0.2459856 0.15545033 -0.24751724 -0.20677508 -0.36296242 -0.23274906 -0.48445147 -0.36468583
0.39461553 -0.30086124 -0.31019518 -0.34459445 -0.23106822 -0.4426288 0.034925934 -0.0017667579
-0.031728692 -0.17319146 -0.2790091 -0.22667538 -0.2740747 -0.11485707 -0.025075912 -0.26681295

lin_layers.1.weight f4 [200, 200]
00000000: 6615 7fbd c4bd fcbd 19b7 3e3d 29f9 efbc
00000010: c818 413d d4ad e63c b272 64bd 6772 0a3d
00000020: 1164 943b a68e b03d 41da ca3c 6521 dfbe
00000030: 7e37 5e3b 294d 873d 9d96 9d3c 2042 9c3d
00000040: 905c 7e3d c042 9e3d fa63 80be b14f a8bd
00000050: 2f2f 9a3a 0fd9 47bd da17 ca3d 0aa7 7bbd
00000060: 63f8 e0bd a554 f53d 7e11 4dbd ce90 dc3d
00000070: c0ab 583d 5239 8cbe ef6e b93d 4f1b 86bd
00000080: cb49 5f3d a3be 283c eaac 89be a446 2cbb
00000090: a242 88bd 06c6 86be ea5e c73d f8d2 07be
000000a0: 5fd6 053d 2472 b2be 030f dc3c f754 afbc
000000b0: f9d1 90be dcb7 29bd 6593 a43d 70a9 843d
000000c0: 79b8 62be f570 0c3e d8fa d73c 19e3 373d
000000d0: a35b 55bc a6e2 29bd f076 d03d b0b9 d0bd
000000e0: 0825 043e 5b0e 273d d576 293d fcc8 abbe
000000f0: 13c2 a8be f606 2b3c 956b 6b3d 424c ecbc
00000100: 2178 a1bd 3fb9 0dbe b7d7 c0bc 1218 c3be
00000110: ba3a 9a3c 9261 c1bc 5042 b63b d41e 39bc
00000120: 2510 ac3b 0021 86bb f87a a2bd 8a7f 9abd
00000130: 2b14 ac3d b262 02be 9605 59be 4d73 9f3d
00000140: edec 99bc 6218 5e3d 02d2 773c b38d 26be
00000150: 9ff6 e2bd a0ee b43d 3c4b c3bc 33f3 56be
00000160: e73f 3f3c d694 003e e929 943d b2f3 423e
00000170: 2e35 bdbc 3f9b 86bd 56c2 a5be 1aa8 b2bc
00000180: 4565 23bd cccb 39bd 0412 953c 937a b4bc
00000190: 1d17 17be f62b 813d 76ce 123d 2af6 163e
000001a0: 3e57 c73a adfc ed3c d254 8ebe 3784 59be
000001b0: f6d3 82bd aedb b9be 4c10 a4bd 115d fd3c
000001c0: e313 95bc 857b 093d 42d1 78be a8f4 103e
000001d0: 330e 7bbe 874f 1a3e c01c 80bd 2408 293d
000001e0: a7a0 24bf ac94 ab3b a8f9 63bd 66f3 78bd
000001f0: d6cd 2e3e 6158 99be 90b9 1d3d b2eb 01bf
00000200: 56cc 78be 05a9 45bd 0314 e33c edee 153d
00000210: 7c5a 533c 572a 683d 48be 0cbe 447e 043e
00000220: 2ad1 a3bd db9f bcbe 44a4 4f3d abdd 8f3d
00000230: c143 463c 0d7e 32bd 6935 b63a bca1 edbe
00000240: 39d9 7e3c 7030 363d f567 d5bc b3bb 583d
00000250: 4d9f 913d b102 b63c 0fdd 073d f929 673d
00000260: 3416 273d 4090 ec3c c38e f4bd 2e15 283e
00000270: 032a e93d 1a8f 04be 5a32 af3c c4d3 4e3d
00000280: b3cf 6cbc 3260 60bd dabe 3ebc 17cf 443d
00000290: 1f5f c1bc 5cd1 0cbe 4c57 9d3c 1430 ec39
000002a0: a36d b43d cc1b bbbe 5aee 843d 73c7 993c
000002b0: 6391 66be 60a6 8cbc 7691 7ebe 57a6 b73c
000002c0: c724 093c 0815 41bd a6af ddbe 36f9 7cbd
000002d0: 4a55 843d 935f 783c e649 e1be c74e 0d3e
000002e0: 0260 383d 1f42 743d 4e9a b0bd 7cfc 35be
000002f0: 445d 91be 80ac a23d b2dc 433d 2743 8e3d
00000300: cbd4 243d 64dd 11be 1480 76be 3fa7 163d
00000310: fdb7 3dbe fe85 79bd a9f6 bbbd 4c85 29bc
00000320: e285 f4bd 0612 6bbd cf2e cf3b 3e5c 14be
00000330: 4b9f d6bc f0fe 16bc 19cc 693c da1f 4ebb
00000340: 9d27 f33c 2bc0 77bd 598c a63d 5246 b6bd
00000350: edb2 ee3c 0c2b 8d3d 9f83 4dbc a903 41be
00000360: b28e 023c 99df 30bd e5da 00be f9c8 15bd
00000370: 3f1f e6bc 99fc 01be 8f48 96be addf 33bb
00000380: f5f0 93bd 4b32 95bd 8772 ffba 3aae 31be
00000390: 95ff 233b ffdb 30be 9d22 de3d 81b0 ecbd
000003a0: 0a3d 3f3d 605f 1dbe 4eb2 e9bd f013 583d
000003b0: b285 153d 1142 8abe abca 00bf 4af7 513d
000003c0: 2d91 bc3c 7ae0 003d 0bf5 ffbc 972e 83be
000003d0: 364e 40be 3701 b2bd 1522 28be b5ed 64bd
000003e0: 2a8b 6b3c 8db7 993c c3e3 9dbc 8e65 7bb8
000003f0: 6d9f f53c 24ea 26be 2be6 a63d a0e6 cfbd
-0.062276267 -0.123408824 0.046561334 -0.029293614 0.047142774 0.02815906 -0.055773444 0.03380051
0.0045285304 0.08620958 0.024762275 -0.43580166 0.0033907588 0.06606514 0.019236857 0.076298
0.062099993 0.07727575 -0.25076276 -0.08218325 0.0011763329 -0.048790988 0.098678306 -0.061438598
-0.10984876 0.11979035 -0.05006551 0.10769807 0.05289817 -0.27387482 0.09054362 -0.065481775
0.054513734 0.010299358 -0.26889735 -0.0026287222 -0.06653334 -0.26322955 0.097349 -0.13264072
0.032675143 -0.34852707 0.026862627 -0.02140282 -0.28285196 -0.041435108 0.08035926 0.0647763
-0.22140683 0.13714965 0.026364729 0.04489431 -0.013022336 -0.041475914 0.101789355 -0.10191667
0.12904751 0.040785175 0.041373093 -0.33551776 -0.32960567 0.010438671 0.057475645 -0.028844956
-0.07884241 -0.13840197 -0.02354036 -0.38104302 0.018826831 -0.023606095 0.0055621043 -0.011298854
0.005250948 -0.0040932894 -0.07933611 -0.075438574 0.08402284 -0.12732962 -0.21193537 0.07785664
-0.018789733 0.054222472 0.015125753 -0.16264991 -0.110821955 0.088345766 -0.023839585 -0.2099121
0.01167295 0.12556776 0.07234556 0.19038275 -0.023096647 -0.065725796 -0.3237483 -0.021808673
-0.0398915 -0.04536037 0.018197067 -0.022031104 -0.14754911 0.06307213 0.035841428 0.14742342
0.0015208495 0.02905115 -0.27799088 -0.21241842 -0.063880846 -0.36300415 -0.08010921 0.030928167
-0.01819796 0.033565063 -0.24298576 0.14155829 -0.24517135 0.150694 -0.062554836 0.04126753
-0.64307636 0.005236229 -0.055658013 -0.060778998 0.17070708 -0.2995024 0.038507044 -0.5075027
-0.24296698 -0.048256893 0.027719503 0.03660481 0.012899991 0.056681003 -0.13744462 0.12938792
-0.07998879 -0.3684071 0.050693765 0.07024702 0.012101115 -0.043577243 0.0013901416 -0.46412456
0.01555472 0.044479787 -0.026050547 0.05291338 0.07110462 0.02221808 0.033169802 0.056436513
0.04079266 0.028877378 -0.11941292 0.1641433 0.11384966 -0.12945214 0.021386314 0.050494924
-0.014453816 -0.05477924 -0.011642182 0.04804906 -0.023604928 -0.1375174 0.019206665 0.0004504925
0.08809974 -0.36544645 0.064907745 0.018771863 -0.22516398 -0.017169178 -0.24860176 0.022418184
0.008370585 -0.047139198 -0.43298072 -0.061761104 0.0646158 0.015159505 -0.44001693 0.13799582
0.045013435 0.05963337 -0.08623181 -0.17772096 -0.2839147 0.07943058 0.047817893 0.06946402
0.040241998 -0.1424461 -0.24072295 0.036780592 -0.18527217 -0.0609188 -0.09177906 -0.010346722
-0.119395986 -0.057390235 0.0063227187 -0.14488313 -0.026199004 -0.009216055 0.014269852 -0.003145209
0.029681975 -0.060486 0.08132238 -0.08900131 0.029138053 0.06892976 -0.012543588 -0.18849052
0.0079685915 -0.04318199 -0.12583502 -0.036568616 -0.028091071 -0.12694015 -0.29352233 -0.0027446554
-0.07223693 -0.07284983 -0.0019489088 -0.17351618 0.0025024165 -0.17271422 0.10846446 -0.11557103
0.04668907 -0.15368414 -0.11410962 0.05275339 0.036504455 -0.2700353 -0.50309247 0.051261224
0.023018444 0.031464078 -0.031244775 -0.25621483 -0.18779835 -0.08691638 -0.16419251 -0.055890758
0.014376441 0.018764282 -0.019273644 -5.9937644e-05 0.029983247 -0.16300255 0.0814937 -0.1015141

lin_layers.1.bias f4 [200]
00000000: a932 01be 226c 40be 0636 2dbe 21bc 14be
00000010: 39cd 6fbe b856 babe 372b 8cbe 5133 abbe
00000020: 4bae efbe 8d47 a9be 2c57 67be 118f 92bf
00000030: 8831 0ebf 6773 17bf 70b1 61bd 280c 56bf
00000040: 715a 6dbe dd45 ebbe 5933 e23b 3164 9dbe
00000050: 97bc 0c3b 6782 18bf d70c 2fbf 4f4c 923e
00000060: d5bf 75bd 70fc 22be d825 cfbc 3634 babe
00000070: 0f8d 69be 944a eabc 5d27 cb3b 09c5 c1be
00000080: 2810 b4be ba0b 81bf 1294 93bd 1386 943d
00000090: acc3 02be 38e3 bf3b 597a 51bf 7793 8bbe
000000a0: 3e8b f1be 6f0e c0be f505 2ebe d487 1ebf
000000b0: 643c cbbd 5bde d9be 1396 e0be 7f68 80be
000000c0: 26c4 84bf 9d49 60bf b604 0abe ac26 0bbf
000000d0: 680d 5cbf 44a0 38be ca8e 2fbe d2b7 50be
000000e0: 318b 8bbf 87e0 b1be 6281 3d3d a70d 5cbf
000000f0: 26a0 98bd 9332 a9bd 1994 273c c0a5 4e3d
00000100: 0826 65bf 6bd1 ea3d 7cdf e63b 25d8 f9be
00000110: 6f0e e3bd 25fc 71bd 05d1 9cbd 2a45 aa3d
00000120: cec1 b0be 97f6 85be 586a 79bf d222 28be
00000130: 83a6 66be e1db d9be 8da9 a2be cdb4 8bbe
00000140: e375 25bf ba40 8abe 30d5 bd3c c7dc 483e
00000150: 2cfd e6be 7408 35be e03d 0fbf 86f0 2bbe
00000160: 64f8 5b3e 134e 6fbe f671 e9be d084 f3be
00000170: aa82 7f3e 9029 7ebe 9e23 03bf cc87 323e
00000180: 23a6 07bf 0136 83be 7cbf 12be e131 1bbf
00000190: d67b 00bf e9b1 93bf 1ff5 fdbe 0cc3 abbd
000001a0: 205a 25bf 3a4d 8ebe 81ba e8be 67d1 93bd
000001b0: 0fa3 2abe cf2d 7fbd 04d9 34be 6e52 babe
000001c0: 1e9b cdbe 34a8 e6be 68ad 27be e753 75bd
000001d0: aecb e43d fbb8 08be e570 0cbe ed9f 15bf
000001e0: b33e a4bd f464 1cbf 1cff 8abe d102 3e3e
000001f0: 6fda 14bf a512 44bf 6494 42be 49a0 9bbd
00000200: cbcd 95be 4769 05bf 15ae adbe 3c95 44bf
00000210: b198 213c 06ca 3c3d a646 b9be dcdb 41bf
00000220: 577b 8cbe affd e2be 2fa3 73bc a17d 9abe
00000230: 6ba0 26bf d531 9d3e 271a 8abe f6ce 58bc
00000240: a369 6cbe 9868 e63d 123d c9bd eeac bebe
00000250: 7a5a 7b3e 6a52 0cbf 2e43 e1be 85c5 44be
00000260: 408a bc3c f1e6 11be e3d7 ecbc a999 2abf
00000270: e41c eebe fe8c c7bd d83f da3e 8812 393e
00000280: 8602 cabe a451 3bbe 3b6b 01be 1c25 d1be
00000290: c4c7 1e3f 10d1 63be ca81 97be 4966 79be
000002a0: a758 57be 8c7c 8fbe 1422 a1bd d3e3 05bf
000002b0: 828e cfbe a16c f0bd 373e 84be f088 c2be
000002c0: 63e3 cabd e9c7 23bf 5126 efbe a197 9c3d
000002d0: cf31 74bd 4ef7 82bc 9d89 f13d 30fb 5d3d
000002e0: 623b 013f b4ec 13bd bc38 d4be 428f 67be
000002f0: 0e5f 3bbf b6dd 59be f0cb 18bf 5399 9cbd
00000300: 6c50 88be e4ea 813e 3013 dfbc 7f40 083e
00000310: 5e86 8a3d 4e10 15bf 880c 493e 7076 473d
-0.12616982 -0.1879125 -0.1691514 -0.1452489 -0.2341813 -0.36394286 -0.2737672 -0.3343759
-0.46812662 -0.330624 -0.22591847 -1.144991 -0.5554433 -0.59160465 -0.05510086 -0.836123
-0.23179032 -0.4595174 0.006903094 -0.30740502 0.0021474713 -0.5957398 -0.6837897 0.28573844
-0.0599974 -0.1591661 -0.0252866 -0.3636796 -0.22807716 -0.028600015 0.006199761 -0.37845638
-0.35168576 -1.0081704 -0.072059765 0.07252135 -0.12769955 0.005855944 -0.8182731 -0.27260944
-0.47176546 -0.37511012 -0.1699446 -0.6192601 -0.09923628 -0.42552456 -0.43864498 -0.25079724
-1.037236 -0.87612325 -0.1347836 -0.54355884 -0.85957956 -0.18029886 -0.17144313 -0.20382622
-1.0901853 -0.34741613 0.046265967 -0.8595833 -0.07452421 -0.082615994 0.01022818 0.05045104
-0.89511156 0.114657246 0.0070456844 -0.48797718 -0.11086737 -0.059078354 -0.07657055 0.08313973
-0.3452286 -0.26164696 -0.9742789 -0.16419533 -0.22524457 -0.42550567 -0.31769982 -0.27286378
-0.64633006 -0.27002507 0.023172945 0.1961547 -0.4511503 -0.17679006 -0.5595379 -0.16790971
0.21481472 -0.23369627 -0.45594758 -0.47562265 0.24952188 -0.24820542 -0.5122622 0.17434615
-0.5298788 -0.2562714 -0.14330858 -0.60622984 -0.5018896 -1.1538669 -0.49601075 -0.083868116
-0.64590645 -0.27793294 -0.4545479 -0.07217675 -0.16663764 -0.062299546 -0.1766091 -0.36391014
-0.40157408 -0.45050204 -0.16374743 -0.05989447 0.11171661 -0.13351814 -0.13714941 -0.5844715
-0.080197714 -0.6109154 -0.27147758 0.18555762 -0.58145803 -0.7659095 -0.19001919 -0.07598931
-0.2925857 -0.52113765 -0.33921877 -0.76790214 0.009863065 0.046091102 -0.36186713 -0.75726104
-0.2743785 -0.4433417 -0.014870449 -0.30173972 -0.6508853 0.3070208 -0.26973078 -0.013232937
-0.23087172 0.112504184 -0.09826101 -0.3724131 0.24546233 -0.54813254 -0.43996567 -0.19215973
0.023015141 -0.14248253 -0.028911537 -0.66640717 -0.46506417 -0.09743689 0.42626834 0.18073475
-0.3945505 -0.18292862 -0.12638561 -0.40848625 0.6202357 -0.2224772 -0.2959121 -0.24355425
-0.21029912 -0.2802471 -0.07867828 -0.5230076 -0.40538412 -0.11739469 -0.25828716 -0.379951
-0.09906652 -0.63976914 -0.4670892 0.076461084 -0.059617814 -0.015987065 0.11793826 0.05419463
0.50481236 -0.03611441 -0.41449535 -0.22613242 -0.73191917 -0.21275982 -0.59686184 -0.07646432
-0.26623857 0.2537452 -0.027230829 0.13305853 0.0676391 -0.58228004 0.19633687 0.048696935

output_layer.weight f4 [200, 200]
00000000: 6839 403d 8541 07be 7f95 1ebe b799 6a3d
00000010: 67ca 2dbe 9ce3 ba3d 84c4 34bb 6313 9a3d
00000020: fe75 c63c fdc0 913e 6877 c7bd dbf9 33be
00000030: 90ae 4f3d 709e c93e d30f e63d 1ab0 0639
00000040: 27ff ed3d 978c 123d 73c6 6f3d 85c7 bf3e
00000050: 013f 3a3e 5cd3 42bd aaa6 a3bd bb9d bd3e
00000060: b115 42bd df0d 273d e681 473e 6b6c 43be
00000070: b820 b23e af4b c73e 76cf e3bc cefb d6bc
00000080: a449 063c e643 b43c fdae ab3d 780b efbb
00000090: 581b 30bd 0d37 44bc 3ebf ae3d 75cc 9bbc
000000a0: 8259 b4bd 9128 c8bd a18a e8bd cd8d e63c
000000b0: 9139 ad3e e502 233d fa24 1fbe 56fd 5ebc
000000c0: c9b5 f23d 758d 283e 6c95 063c cdd9 b73e
000000d0: 4f07 f8bc 4ff2 bfbc 98bf 02be d15e 2e3e
000000e0: 5133 7c3d 7ed9 fd3d b534 18bd b775 953d
000000f0: 5f30 debd a58d 9bbd 1d48 5fbc b799 103d
00000100: 65cb 1e3d a814 a93d 6464 16be 7188 dd3d
00000110: 17cb 9bbc c98b 1bbd 6cfd eabd 0c3c c1bd
00000120: 4574 303e a681 32bc 4fb1 ec3d 809b 413b
00000130: 0fd6 733e 291b 6b3e 4785 d0bb 5deb 453d
00000140: 030b 433e 2b95 173e de2d 393e 80ce 7d3e
00000150: a1cb ca3e f1d0 c3bd 7a05 853e 22d4 abba
00000160: f249 a4bd 2333 acbd 214d 0abe 16ff 023f
00000170: bf98 2bbe 194d ccbd 8d69 d53c 436d d83c
00000180: 0aa1 e33d a677 d2bd 67d5 c93d 164a 5b3e
00000190: 149b 023e 419d e83d 5307 21be 1f35 123e
000001a0: 3cd9 0c3f 63e5 5fbc ec70 093d eb1c 813c
000001b0: 73d3 e43e 5126 173e 841d b5ba 11d8 ed3e
000001c0: 6fb7 a13d b5d4 093f 4808 4b3e b5ae 63be
000001d0: d8ab 9dbd b479 993d bc3d e23e 231d 553e
000001e0: a4e6 c5bd 86ad 0f3d 9d89 b83d 4117 21bb
000001f0: ce81 f33e 6953 6a3d 26a8 823d 2440 02bd
00000200: be78 3fbe c458 05be 1da3 60bc 1243 b73e
00000210: 41fe 48bd aef2 a23e 239e 7cbd dee8 563d
00000220: ba5c 173e 50e6 6cbd 5947 b23e 958b e2bd
00000230: abb0 b73e cc4a 043e 6016 d93d 5cc7 b53d
00000240: 81ed df3d a7ad 82bc d5fc 8c3d 7670 c3bd
00000250: f4ff 27bd 4b5b 333e b422 013f c5ea 313e
00000260: 4b49 22be a31c 3a3e 6f6f f13d 8d73 363e
00000270: b974 6ebd 0e58 c93d 2648 cd3e 3291 20be
00000280: 95d2 343d d121 b23d 11f4 b5bc 57a2 1cbe
00000290: ddde d8bd 8055 ab3e f6fc 0bbe 1989 73bd
000002a0: b321 0ebe 9691 bb3d 7c1a 1e3e 399d 59bd
000002b0: 98b1 f13d dc09 4a3e c00e 2a3d 49a8 273e
000002c0: 2b32 023e 1972 053e ea66 dd3d 2197 e13d
000002d0: 3b0d 053e f116 3b3e 7a74 fd3d 6d73 443e
000002e0: 2ff9 6abe b4d3 9fbd 8efd 4fbe 9216 0a3c
000002f0: fdc9 d93d 475f 8abd afac 19bd 81b1 abbc
00000300: fed0 463e 1e60 be3d a0c7 733e 224e abbd
00000310: 300b 143e cc65 d13e 4be8 073d d1b1 2c3e
00000320: 4477 913d 06e3 b63b 7d4a d13d 30fa 093c
00000330: 8815 f13d e121 6f3e 4253 303e c1a8 ef3d
00000340: 6639 1ebe 7224 413d 07da 5bbe ded1 143e
00000350: a905 103e 27da 433e dd06 803d fc28 21be
00000360: 4f3f d03d 931b 42be 8716 0abe 38f8 1b3e
00000370: aafa 2ebe 5bdc d0bd 3328 64bd 9037 983e
00000380: 3cff 25be 83af 133e 5b25 463e 756a a63d
00000390: 89aa 7c3e eedb 883e 1dc8 723d 0310 bbbd
000003a0: d39c 36bd 9a68 06be 8b37 b63d 2b9a 223e
000003b0: e687 12be a05d 19bb 3c5c e1bd 4d0e 16be
000003c0: 18b2 edbd 14c6 f33a b195 413e 7b8e 0fbe
000003d0: 099f 973d 7fdc e5bd 4dd1 3c3e 7245 aa3d
000003e0: c9de 30be 7a87 24be be09 373c 8b53 e43c
000003f0: 5b22 13bd 4562 3a3e b913 0cbe 24be 9fbc
0.046929747 -0.13208587 -0.15486716 0.0572755 -0.16971742 0.09125444 -0.0027582953 0.07523229
0.024226185 0.2846755 -0.09739572 -0.17575781 0.050703585 0.3937869 0.11233487 0.00012844839
0.11620932 0.03577861 0.058538865 0.3745691 0.18188097 -0.04756485 -0.07990773 0.370344
-0.047383968 0.040784713 0.19483146 -0.19084327 0.34790587 0.3892493 -0.027808886 -0.026243117
0.008196268 0.022005033 0.08382986 -0.0072950684 -0.042994827 -0.011976016 0.0853257 -0.019018391
-0.08806135 -0.097733624 -0.11354566 0.028143788 0.33832982 0.039797682 -0.15541449 -0.013610205
0.11851079 0.16460212 0.008214336 0.35908356 -0.030276923 -0.023430971 -0.127684 0.17028357
0.061572377 0.12394999 -0.03715964 0.07297843 -0.1084907 -0.07595376 -0.013628033 0.035302844
0.03876819 0.08255893 -0.14686733 0.1081704 -0.01901774 -0.037975106 -0.11474118 -0.09435281
0.17231853 -0.010895168 0.115572564 0.0029542148 0.23812126 0.2295958 -0.006363544 0.048320163
0.1904717 0.14802997 0.18083903 0.24785805 0.39608482 -0.09561337 0.2598074 -0.0013109485
-0.080219164 -0.08408191 -0.13505985 0.5117048 -0.16757487 -0.09975643 0.026051307 0.026419288
0.111147 -0.102767274 0.098551564 0.2141498 0.1275447 0.11358119 -0.1572545 0.14278077
0.55018973 -0.01366553 0.033554956 0.01576086 0.44692573 0.1476071 -0.0013818 0.46453908
0.07896315 0.5384019 0.19827378 -0.22234614 -0.07698792 0.07493916 0.44187725 0.20811896
-0.09663132 0.035077594 0.09010623 -0.002458051 0.4755997 0.057208452 0.06379728 -0.03179945
-0.18698403 -0.13022143 -0.013710764 0.35793358 -0.0490706 0.31825775 -0.06167425 0.052468173
0.14781466 -0.05783683 0.3482006 -0.110617794 0.35876974 0.12919158 0.10599971 0.088759154
0.10933972 -0.015951945 0.068841614 -0.095429346 -0.04101558 0.17515294 0.5044358 0.17374714
-0.15848272 0.18174987 0.117888324 0.17817517 -0.058216784 0.09831248 0.40094107 -0.15680388
0.04414614 0.08697856 -0.022211106 -0.15296303 -0.10589383 0.3346367 -0.13670716 -0.05945692
-0.13880043 0.09158628 0.1543979 -0.053128455 0.118014514 0.19730324 0.041517973 0.1637279
0.1271445 0.13031806 0.10810645 0.11015154 0.12993328 0.1827047 0.12375732 0.19184656
-0.22946618 -0.07804051 -0.20311567 0.008428233 0.10634229 -0.06756454 -0.0375182 -0.020958664
0.19415662 0.09295677 0.2380662 -0.08364512 0.14457393 0.40897977 0.033180516 0.16864707
0.07102826 0.0055812625 0.10219286 0.008421466 0.11771685 0.23352768 0.1721926 0.11702109
-0.15451583 0.047153898 -0.2146989 0.14533183 0.14064659 0.19126187 0.06251309 -0.1573829
0.10168325 -0.18955831 -0.13485156 0.15231407 -0.17087808 -0.101982795 -0.0557024 0.2972989
-0.16210645 0.14422421 0.19350187 0.08125774 0.24674429 0.26730293 0.059272874 -0.09133913
-0.044583153 -0.1312584 0.08897313 0.15879123 -0.14309654 -0.0023401752 -0.110039204 -0.14653893
-0.11606234 0.0018598461 0.18904759 -0.14019196 0.074033804 -0.11223697 0.18439217 0.08314027
-0.17272486 -0.16067305 0.011171756 0.027871868 -0.035921436 0.1820155 -0.13679399 -0.019499846

output_layer.bias f4 [200]
00000000: 8718 c93e e631 113f a1cc cf3d a141 e3be
00000010: 8b93 45be 6a85 b3be 4a41 d5be 759a b33e
00000020: 582f 2ebe a002 363e 1fde afbe db8f e83e
00000030: 7a1f 983e 729f c03e 0bb4 ea3e 5c21 ab3e
00000040: 406a b5be abe4 033f 1d2f dcbd 1977 c83e
00000050: 6f87 30bf b043 973e 6e5c 57bd e5ae f7be
00000060: 618d a1be 87a3 7cbe c6de 00be b478 a2be
00000070: 8ebc f9be b9c2 0a3f ff71 ed3e 6407 e5be
00000080: feea e33e fd5a e23e c701 873e b0db e13e
00000090: 0f5c 5fbe af41 f83e cf55 eebe 2947 2cbf
000000a0: 77f8 c8bd aa56 0abf 3a91 19be aafb b5be
000000b0: 96e3 d13e 4aed 02bf 2649 063f 8a18 66be
000000c0: 6da2 f63e 5361 c7be 219d 8fbe 7018 aa3e
000000d0: 3b79 e63e 0538 10bf 3411 78bd 5b68 f73d
000000e0: f42e 0bbe a949 b73e 5b09 813e e454 9b3e
000000f0: ef43 173f 2e86 783e b4e1 a9be 275f cebe
00000100: 43fc 15bf 149c cfbe 845a 133f 7001 72bd
00000110: 5fa2 11bf 120d 373e d3e0 d03d 828e 83be
00000120: 1dc2 3bbd 9135 86be 603e f63e 0742 c5bd
00000130: 3b4c b9be c147 bebe 8d4a 4e3e 75f1 adbe
00000140: 10b4 e8bd b3ab abbe 4b27 9bbe c4be 11bf
00000150: 8bce ae3e 8fbf a0be 6846 1b3f d70a 1cbf
00000160: ba9c e9be 6191 d63d 5644 c3be 7676 753e
00000170: 10e3 f2be f9e3 8bbe 1efc d1be 69ca af3e
00000180: 4f5c a83e 79d6 bbbe 60cd ef3e 80e2 a63e
00000190: 1804 733e 2a73 a43e 36b4 c93e 487b 8d3e
000001a0: 4489 35be e12e 36be d47b c6be 0d3e 1abf
000001b0: 92f5 f23e 1b0f abbe 082e b13e 7f05 62be
000001c0: c1e6 a03e 1e22 e33e 1431 a33e da16 a83e
000001d0: b4c4 94be 8ecb 293e 9ea4 9d3e 8b54 953e
000001e0: 117e 12be 1a9e c53e 8b90 9d3e 0557 4ebe
000001f0: 897d 70be 5525 6f3e 3b79 ae3e e3bf d0be
00000200: 647a e83e 0ec3 a63e fddb 823e 9142 c4be
00000210: dd87 3cbe b638 4dbe 6ee4 ae3e d431 af3e
00000220: 8a59 9a3e 4431 e7be becb d6be 4012 7abe
00000230: 175f 18bf f0e8 05bf 0e9b a03d efd7 a1be
00000240: c76e d23e cfdc e3be a575 6bbd 5b6e 1dbf
00000250: cc10 9a3e 1bd4 dbbe 4b6c 803e 7e0e fbba
00000260: 993f 863e 938d 2cbe d402 10bf f428 e9be
00000270: e3d8 c0be 8a95 88bd bfc2 a4be 0a31 84be
00000280: f403 e93e b049 afbe 60c3 d9bc 3287 9e3e
00000290: 7b45 083d 3124 debe 7b61 00bf 5fd7 09bf
000002a0: 3f2e ddbe ce78 20be 1464 013f 9fba 0d3f
000002b0: 7871 a8be 9793 aebe 5f3d d9be d56f 8cbd
000002c0: d2aa f03e 824d df3e a6d1 92be af67 a83e
000002d0: 0b12 afbe 59c2 b53d 8d15 c63e accc a3be
000002e0: 5509 8cbe 668e 173f ea77 143f 170c bd3e
000002f0: 24fa 52bd 1c2e 82be 2dc1 de3e ed36 bcbe
00000300: dbb8 e43e 676f ccbe e087 7f3e 9cff 0f3f
00000310: c705 9abe aed8 a3be 4302 093f 4d2d 5ebb
0.39276525 0.56716764 0.10146452 -0.44386008 -0.19294564 -0.35062724 -0.41651374 0.3507878
-0.17010248 0.17774439 -0.34349152 0.45422253 0.29711515 0.37621647 0.45840487 0.3342389
-0.35432625 0.51520795 -0.10751174 0.39153364 -0.68956655 0.2954383 -0.052578382 -0.4837562
-0.31553176 -0.24671756 -0.12584981 -0.31732714 -0.48776668 0.54203373 0.46376035 -0.447322
0.44515222 0.44210044 0.26368544 0.4411292 -0.21812461 0.48487613 -0.46549842 -0.6729608
-0.09813016 -0.5403849 -0.14996806 -0.35543567 0.40993947 -0.51143324 0.52455366 -0.22470298
0.48170796 -0.3894144 -0.28049567 0.3322177 0.45014367 -0.5633548 -0.06056328 0.12080451
-0.1359213 0.35798386 0.2520245 0.30338204 0.59088033 0.24269935 -0.3318001 -0.4030697
-0.58588046 -0.40548766 0.5755999 -0.059083402 -0.56888384 0.1787608 0.10199132 -0.25694662
-0.045839418 -0.26212743 0.48094463 -0.09631734 -0.36190972 -0.3716412 0.20145626 -0.3397328
-0.11362469 -0.33529434 -0.30303416 -0.5693171 0.34141955 -0.31396148 0.60654306 -0.6095404
-0.45627385 0.104769476 -0.38138074 0.2397097 -0.4743886 -0.27322367 -0.41012663 0.34334114
0.32882926 -0.36687067 0.46836376 0.3259468 0.2373203 0.32119113 0.39395303 0.2763312
-0.17728144 -0.1779132 -0.38766348 -0.6025093 0.4745298 -0.33409962 0.34605432 -0.22072409
0.3142605 0.44361967 0.3187338 0.32829934 -0.29056323 0.16581556 0.30789655 0.29166064
-0.14305903 0.38597184 0.3077434 -0.20150383 -0.23485388 0.23354085 0.34076867 -0.40771398
0.45405877 0.3257069 0.25558463 -0.38332036 -0.18411203 -0.20041165 0.34158653 0.34217703
0.30146438 -0.45154774 -0.41952318 -0.24421024 -0.59520096 -0.5230856 0.07842074 -0.31610057
0.4110014 -0.445044 -0.05748524 -0.61496514 0.3009094 -0.4293526 0.2508262 -0.0019154099
0.26220396 -0.16850881 -0.56254315 -0.45539057 -0.3766547 -0.06669147 -0.3217983 -0.25818664
0.45510828 -0.34235907 -0.02658242 0.3096252 0.033269387 -0.43386987 -0.50148743 -0.53844255
-0.43199345 -0.15671083 0.5054333 0.55362886 -0.3289907 -0.34096977 -0.42429635 -0.06857268
0.47005326 0.4361382 -0.28675574 0.32891604 -0.34193453 0.088749595 0.38688317 -0.3199209
-0.2735087 0.5920166 0.57995474 0.36923286 -0.051508084 -0.25425804 0.43506756 -0.36760655
0.44672284 -0.39928743 0.24954176 0.56249404 -0.30082533 -0.3200125 0.53519076 -0.0033901513

first_bn_layer.weight f4 [24]
00000000: 60f2 f43e ca3a 113f 76e5 3b3f 3fd4 6a3f
00000010: 48ec 5d3f 1b95 2c3f 3e59 173f 04d0 b63f
00000020: d14c 8b3f 4e99 7a3f abc9 5e3f a593 5d3f
00000030: 8f23 483f 6ff6 6d3f f4ea a33f a557 263f
00000040: b5cb 703f 428e 1b3f 8b09 293f 91ae 373f
00000050: bd94 273f 4c5b 403f e663 2f3f 1ca2 393f
0.47841167 0.5673033 0.73397005 0.9173011 0.8668866 0.67415017 0.5912055 1.4282231
1.0882818 0.97890174 0.8702647 0.8655341 0.7817926 0.9295415 1.2806077 0.64977485
0.9406083 0.60763943 0.66030186 0.7175074 0.6546133 0.7513931 0.6851181 0.72512984

first_bn_layer.bias f4 [24]
00000000: f6db 03bd 08a3 c03b 5c02 573e 8eb8 1dbc
00000010: f96f 4c3d 2e11 8abd 5f2f 213e 1db3 9a3e
00000020: b547 813d bf4e ccbd 04c8 12be 8f83 84bd
00000030: c2f5 233c e791 ce3d 87e7 903e 5c20 3e3c
00000040: 270a 3cbe 2c99 64be bc82 99bc f1d0 523d
00000050: 3b90 23bd f83a fdbd f4c1 4b3d 36fa 043e
-0.032192193 0.00587881 0.20996994 -0.009626521 0.049911473 -0.06741558 0.15740727 0.30214778
0.06312505 -0.09975957 -0.14334112 -0.06470405 0.010007324 0.100864224 0.2830164 0.011604395
-0.18363248 -0.22324055 -0.018739097 0.051468793 -0.03993247 -0.12364763 0.049745515 0.12986073

first_bn_layer.running_mean f4 [24]
00000000: 159c cc3d 28c0 d13c 4d6d 0d3d c552 9d3d
00000010: 120b ee3a 9756 423f d217 c63c 2e84 d13c
00000020: 7875 4b3d 574a ac3e 91d9 0c3f 4d71 523f
00000030: 82b2 0d3f b911 1d3e dffe de3c ca0d a83b
00000040: 9fdf 0d3f 400e 233f a7e9 0a3f e965 ec3e
00000050: 3c64 5d3d 5f67 d93e 6686 573e b6fa e03e
0.09990708 0.025604323 0.034528065 0.07681803 0.0018161258 0.75913376 0.02418128 0.025575723
0.049672574 0.33650467 0.5501948 0.82204133 0.55350506 0.15338792 0.027221141 0.005128597
0.55419344 0.6369362 0.54262775 0.461715 0.05405067 0.42461678 0.21047363 0.43941277

first_bn_layer.running_var f4 [24]
00000000: 8d15 b83d a083 0b3b 75be 4e3a e00b 333b
00000010: ca17 0b39 7d3d 893b f089 583b b391 fb3a
00000020: 36ab ab3b 9b86 093d 0c75 c53c ffec c83c
00000030: 2178 393d bd69 a73c 9f4f 4d3b e039 2b3a
00000040: 1e87 163d cd80 f03d a9e4 8b3b 2377 863c
00000050: 80e5 ad3a 2ac9 0a3c 3961 9a3b 75bc 023c
0.089884855 0.0021288171 0.00078866567 0.002732031 0.00013264935 0.004188238 0.0033041202 0.0019193202
0.005238916 0.033575635 0.024103664 0.024527071 0.04528058 0.020436162 0.0031327975 0.00065317564
0.03674995 0.11743317 0.004269202 0.01641423 0.0013267249 0.008470813 0.004711297 0.007979502

bn_layers.0.weight f4 [200]
00000000: 29d4 3d3f 74ac 6a3f 91c1 843f f1ad 5c3f
00000010: 2b0e 453f 9043 5e3f ba45 7b3f 1986 363f
00000020: ee83 3e3f 6b83 3d3f 63ec 843f 0d48 853f
00000030: 6b62 383f 8fe9 2c3f 7ef6 573f 0b9e 4c3f
00000040: 2426 763f 206b 5b3f 1621 403f 9e0e 4b3f
00000050: ce59 8f3f b019 2f3f e6d3 453f 184c 653f
00000060: ea9d 6d3f 43fb 273f f00f 4d3f 9838 613f
00000070: 1677 4c3f 64c8 453f b446 313f f8ce 423f
00000080: 0ab4 463f 351e 773f 9163 603f ee39 483f
00000090: acee 323f 011e 9e3f 99db 2e3f a274 603f
000000a0: 7f54 403f 2aed 883f e3d2 643f e542 833f
000000b0: e39c 833f 2d76 803f 2810 323f 4f47 4f3f
000000c0: 76d3 5e3f b49f 753f cb35 6b3f 108c 4c3f
000000d0: a7b4 483f 3868 3d3f 4e62 453f e13e 533f
000000e0: ddd4 383f a4c1 303f f903 3c3f 25e5 473f
000000f0: b8ca 993f 4426 313f 5cf8 393f 1e88 403f
00000100: 3939 4c3f 3673 213f c01f 593f 6591 503f
00000110: 8fe5 453f 996d 683f e5b5 4a3f 7471 103f
00000120: d9be 723f ba0c 623f 03c7 7d3f 7f0d 373f
00000130: 52c5 3d3f a7a1 6e3f 9b29 723f adc3 343f
00000140: fda3 7f3f 7423 483f 21a0 6d3f 7623 393f
00000150: e110 5e3f 12de 5c3f e5db 903f ac1a 613f
00000160: 47d5 873f a5a4 173f 00b2 773f 388f 503f
00000170: 2ccd 5c3f 6101 463f b2e6 9f3f 40b2 353f
00000180: 066a 6f3f 1f20 5c3f b513 543f 8251 663f
00000190: 8af6 3a3f 8eb0 723f 1f02 573f f836 323f
000001a0: 915a 6f3f 6596 813f eebe 913f 5e2b 723f
000001b0: c0b8 673f 31f5 7c3f 8ab8 4e3f db62 733f
000001c0: ae7b 613f 6312 373f 86d4 703f f7f4 5e3f
000001d0: f545 563f e093 773f 3631 793f 06b2 533f
000001e0: 084b 7e3f 1463 453f 0010 443f deea 623f
000001f0: 6b9d 393f 15af 653f 346c 2b3f e32a 593f
00000200: a3d3 533f 5b9f 4d3f 067e 673f da16 643f
00000210: 5d72 5d3f 89fc 353f 9069 873f 4a2f 513f
00000220: 3a21 563f f240 4b3f 1aa8 653f bf6b 413f
00000230: 0e27 433f 59c2 513f c7ba 5e3f bd3b 6e3f
00000240: dc4b 383f c880 503f 98d2 2a3f f4a8 713f
00000250: f9a7 7c3f 10d3 8d3f e10b 4d3f 9996 453f
00000260: dafb 833f 1edf 323f 3150 713f ec99 333f
00000270: 2ec3 613f 6670 543f 7849 453f 0e86 7f3f
00000280: d640 553f f5b0 623f da79 403f 6787 6d3f
00000290: d169 523f b7e8 6a3f a7e8 5b3f 4942 633f
000002a0: 2071 853f 3200 5c3f 5105 573f 645b 703f
000002b0: 12a7 313f 6a23 393f 8317 473f ebe7 573f
000002c0: b2c7 8a3f 7210 3a3f f273 7c3f 537d 3a3f
000002d0: a910 593f 1d3c 563f 726c 8c3f 857c 503f
000002e0: d6c9 453f 8ee3 293f 4e4b 4d3f 258d 613f
000002f0: 4177 883f 070f 303f bd02 333f 4a3b 633f
00000300: d1eb 423f 7f3b 6e3f 2112 5c3f ba34 553f
00000310: 055a 3f3f 0c8a 763f 8cf4 4d3f 032e 5b3f
0.74151856 0.9166939 1.0371572 0.86202914 0.76974744 0.8682184 0.9815327 0.71298367
0.7442006 0.7402865 1.038464 1.0412613 0.72025174 0.6754388 0.8436049 0.79928654
0.9615195 0.85710335 0.75050485 0.7931918 1.1199281 0.6839857 0.77276456 0.89569235
0.9281908 0.6561777 0.80102444 0.8797698 0.7986921 0.77258897 0.6924851 0.7609706
0.7761847 0.9653047 0.87651926 0.78213394 0.69895434 1.2352906 0.6830383 0.8767797
0.7512893 1.0697377 0.8938429 1.025479 1.0282253 1.0036064 0.695559 0.80968183
0.87041414 0.9594681 0.91878957 0.7990122 0.78400654 0.7398715 0.77103126 0.8251782
0.72199804 0.6904547 0.7344356 0.7808402 1.201499 0.69199014 0.7264459 0.752077
0.79774815 0.6306642 0.8481407 0.81471854 0.77303404 0.9079223 0.791838 0.56423116
0.9482246 0.8830067 0.9913179 0.7150497 0.7412921 0.9321541 0.94594735 0.7061108
0.998596 0.781791 0.9282246 0.72319734 0.86744505 0.8627635 1.1317106 0.87931323
1.0611962 0.592356 0.9675598 0.81468534 0.8625057 0.77345854 1.2492278 0.7097511
0.93521154 0.8598651 0.8284257 0.8996812 0.7303244 0.9480065 0.8398761 0.69615126
0.9349757 1.0124022 1.1386392 0.94597423 0.9051628 0.9881163 0.80750334 0.95072716
0.88079345 0.7151243 0.94074285 0.87092537 0.83700496 0.96710014 0.97340715 0.8269352
0.9933324 0.77104306 0.76586914 0.8863963 0.72505826 0.8972028 0.6696198 0.84831065
0.82744807 0.8032128 0.9042667 0.8909737 0.8650263 0.71088463 1.057909 0.8171278
0.8364445 0.79395974 0.8970963 0.7555503 0.7623147 0.81937176 0.8700375 0.93059903
0.7199075 0.81446505 0.6672759 0.94398427 0.98693806 1.1080036 0.8009625 0.7718292
1.0311234 0.698717 0.9426299 0.7015674 0.88188446 0.82984006 0.7706523 0.99813926
0.83302057 0.88551265 0.7518593 0.9278473 0.82192713 0.91761345 0.85901874 0.8877302
1.0425148 0.859378 0.8399249 0.9388945 0.69395554 0.7231966 0.7777025 0.84338254
1.0842192 0.72681344 0.9861442 0.7284748 0.84791046 0.83685476 1.0970595 0.8144
0.772611 0.66362846 0.8019303 0.88105994 1.0661393 0.6877293 0.69926053 0.8876234
0.7614108 0.93059534 0.8596516 0.8328358 0.74746734 0.9630439 0.80451274 0.85617083

bn_layers.0.bias f4 [200]
00000000: 669b 953e 1002 723e e7a9 c53e d67f 993e
00000010: b75a 973d 963c 9e3e 99be af3e d613 233e
00000020: f390 6bbb b566 223e 3659 aa3e bf9b 7b3e
00000030: fad9 f93d f8c8 dc3d 3704 8c3e 9caf 8e3d
00000040: 5f54 573e 718d 663e df77 7f3e b117 9c3e
00000050: 0b31 873e 2449 813e 07a7 333e f28d 643e
00000060: 9aec 913e 7c41 243e 6742 773e 202d b03e
00000070: 09b6 b03d 9ff6 2a3e 4474 513e 7507 373e
00000080: 9ff8 583e 64d3 813e eacd a83e ea0d 94bd
00000090: aa96 223e eacf 733e ce21 8c3e 64c0 383e
000000a0: 6f4e d53d 8d1c 663e 45c9 8a3e 9e99 913e
000000b0: 76e2 943e c0f0 c33e b7da b13e 3155 853d
000000c0: 1ae4 803e 326f 463e 30bc 973e 0cf3 683d
000000d0: 995f 423e b71c 1c3e 4e5b 853e 33e5 bc3e
000000e0: 5119 d53c 841b 10bd 6da3 6f3e 2e77 743e
000000f0: e230 f23e dbe8 ff3c 95bd 453e f01f 9f3e
00000100: 4ea2 173e d81b 323e 7d67 843e a101 bd3e
00000110: 8bf7 dabc 0f82 283e d9e4 ef3d 968a 8cbd
00000120: 5455 943e b4ba c13e 9e2f 743e cd40 7f3e
00000130: 470d 343e 524e 453e 7ad2 b73e 8624 1c3e
00000140: d098 903e c036 933e 07ad 583e 6d03 623e
00000150: cbcf 503e 845a 2e3e 2b38 ff3e 8b36 8a3e
00000160: 8534 b13e 1b26 973d f661 b73e 5fcb 3e3e
00000170: 08a4 7e3e d0c3 9a3e d408 893e 001b 3d3e
00000180: 9927 e23e 53e4 a13e a8f0 773e 1ff6 943e
00000190: f886 5a3e fc2e 863e b7e4 603e d6e5 283b
000001a0: bfc1 983e cef5 ba3e dd27 8a3e 9873 813e
000001b0: c44a 9a3e 6d5f 743e 0172 833e 9eea 263e
000001c0: f260 8b3e 39f2 573e 20a9 be3e bf79 ab3e
000001d0: 6959 863e 06e7 c43e b495 c93e a8ea 8d3e
000001e0: 289b 8b3e 18ea 8d3e a938 573e 267d 613e
000001f0: 2b35 043e d61f a13e db3c 143e bb3c 5a3e
00000200: d622 823e 514e 873e e96d 993e ce98 dc3e
00000210: ed73 3c3e cf18 fe3d cbd2 943e ac45 813e
00000220: 9bf2 913e 8b27 8d3e f566 4f3e a5d3 573e
00000230: 600e 953e e251 a83e 6c71 9b3e a57c e73e
00000240: baf5 5b3e 881e b23e 866d 353e e70c 8f3e
00000250: cdcf b23e e39b 873e 7d09 a23e 0ec5 113e
00000260: fd17 a83e 7d9a f63d 8d23 9c3e 9205 6b3d
00000270: cf1a 833e 1ce7 f63d 3e28 853e 3528 903e
00000280: 260b 2f3e 1633 8c3e da16 023e d8af 303e
00000290: b4ca a73e 441a 793e 758d 1e3e e087 b93e
000002a0: 928d 913e 55a8 253e c39d 9c3e 334c 783e
000002b0: 0427 dd3d c96b 753e da71 313e 8c1b 763e
000002c0: 09a8 a23e ca59 8d3e 0264 963e 6959 043e
000002d0: 3254 7e3e a83d 9c3e 0017 9c3e 749c d73e
000002e0: 241f 52bd cc1f 1d3e 22d1 603d 4e4e c53d
000002f0: 067d ad3e 3b5e 0b3e 96ca 0f3e 2247 ad3e
00000300: 8e11 113e d137 433e b8d4 3b3e a784 193e
00000310: f1ea bb3d a2a2 9f3e 6050 8c3e 94b8 633e
0.29220122 0.236336 0.38606188 0.29980344 0.07390349 0.30905598 0.34325102 0.15925536
-0.003594455 0.15859492 0.33271188 0.24571131 0.12199779 0.10780519 0.27346966 0.069670886
0.21028279 0.22514893 0.24948071 0.30486825 0.26404604 0.25251114 0.17544185 0.22319773
0.28500825 0.16040605 0.24146424 0.34409428 0.086284705 0.16695641 0.20454508 0.17873938
0.21188591 0.2535659 0.329696 -0.072292164 0.15877786 0.23809782 0.2736954 0.18042141
0.10415351 0.22471829 0.2710668 0.28437513 0.29079026 0.38269615 0.3473718 0.065103896
0.25174028 0.19378355 0.29635763 0.056872413 0.1898178 0.15245329 0.26046222 0.36893615
0.026013048 -0.03518249 0.23402186 0.23873588 0.4730292 0.031238964 0.19310601 0.31079054
0.14808008 0.17393434 0.25860205 0.36915305 -0.026729366 0.16455863 0.11713571 -0.06862371
0.2897135 0.37837756 0.2384629 0.24927063 0.1758319 0.19268158 0.35902768 0.15248308
0.28241587 0.28752708 0.21159755 0.2207162 0.20391767 0.17026716 0.4984754 0.26994738
0.34610382 0.07380315 0.35816926 0.18632267 0.2486726 0.30227518 0.26764548 0.18467331
0.44170836 0.3161951 0.24212897 0.29094025 0.21340549 0.2620772 0.21962248 0.0025771759
0.29835317 0.3651566 0.26983538 0.25283504 0.30135167 0.23864527 0.25672916 0.16300437
0.272224 0.21088494 0.37238407 0.33491322 0.2624009 0.38457507 0.39372027 0.2771809
0.27266812 0.27717662 0.21017708 0.22020397 0.12910907 0.314696 0.1447634 0.2131223
0.25417203 0.26426938 0.29966667 0.4308533 0.18403597 0.124070756 0.29067072 0.25248468
0.28505406 0.2756923 0.20254119 0.2107683 0.2911253 0.32874972 0.30359972 0.45212284
0.21480456 0.34788918 0.17717561 0.2793953 0.34924164 0.2648612 0.31647864 0.14235327
0.32830802 0.12041185 0.30495873 0.05737836 0.2560639 0.12055799 0.26007265 0.28155676
0.17094097 0.27382725 0.1270403 0.17254579 0.32771838 0.24326426 0.15483649 0.36236477
0.28428322 0.16177495 0.30589113 0.24247818 0.10798457 0.23966898 0.17328587 0.24033946
0.31768826 0.27607566 0.29373175 0.12924732 0.24836805 0.3051579 0.30486298 0.42111552
-0.05129923 0.15344161 0.054886945 0.09634076 0.33884448 0.13610165 0.14042124 0.33843333
0.14166853 0.19064261 0.18342865 0.14992009 0.09175671 0.31178766 0.2740507 0.2223838

bn_layers.0.running_mean f4 [200]
00000000: fb77 0e3f 18b1 613e a2b0 603e 7ecc a13e
00000010: 3963 0c3e 063a ca3e 6daa 753e 2651 3a3e
00000020: 081c 363f c917 233e 1af8 4e3e 38d0 1d3d
00000030: e793 1f3e 4471 af3e 6782 873e 6355 0f3e
00000040: b530 2c3e 6476 313e 04c3 1f3e 6a70 e83e
00000050: 71ef 453e 903d f83e 5403 ec3d d4b6 953d
00000060: dae8 183e 7612 ce3e 6525 263e 64f4 693e
00000070: 9412 7e3d 3ba0 cd3d 32fd bb3e b6b6 8e3e
00000080: d6ca 743e 608b 163e 7fee f43e b864 9d3e
00000090: c696 213e 23cc 013d 2d70 013f ec19 7f3e
000000a0: 4863 b33d de06 1b3d a805 bb3d e995 913e
000000b0: 10a1 573e 3f1c b73e d6db e93e 57f0 bb3e
000000c0: 90c1 4f3e 3782 163e 53dd 623e d38e fc3e
000000d0: 8388 973e f762 4e3e 2ec3 8c3e 1629 af3e
000000e0: f24a c53d dac0 fd3e 6c41 633e 10ee f23d
000000f0: 1ef8 613e 1941 5f3e 6b78 c43e 77f1 ba3e
00000100: 360f 9c3d c84d ff3e 8405 2e3e 1ce5 bd3e
00000110: 987d 353f 5cce 893e 3ad2 ec3d 7d29 883e
00000120: 1848 9a3e f022 b03e 31d4 d03d 72df d73e
00000130: b445 3f3e ed67 523d 1b98 a13e a638 0a3f
00000140: a2ff 013e 0397 783e e893 cb3d f9c7 513e
00000150: acc2 033e 2836 ec3e b935 033e ffba 193e
00000160: 77ca e83d 09b1 d73e 49ff 403e c32a 923e
00000170: edc2 693e 2c72 673e 1e11 f03c 17d5 c03e
00000180: 0c34 0a3f 8238 843e 3f38 573e cbc8 173e
00000190: 4b66 163e d63e dd3d b455 613e 52d1 863e
000001a0: 816b 613e 04cd a53e 869c e73d e7ed e43d
000001b0: c37e 933e 5818 b93d 9eac a93e 8a09 f63d
000001c0: e652 9a3e 3fbc 2e3e 798a 3f3e fc0b 813e
000001d0: 9b71 513e 2260 813e 44ec a23e fc4f 8b3e
000001e0: 3b0d 073e 391b 603e b624 743e 53cf 3c3e
000001f0: 666f 893e 4e0a 843e 7f1a c73e f3c6 853d
00000200: f867 ae3e 2a8a 5e3e bc1b 873e 08b4 703e
00000210: fcab bc3d 9b5e 963e 1728 463e 840a 0d3e
00000220: ad4d 353e 9b81 713e 119d 393e c84c ac3e
00000230: db2b c63e 49a8 8a3e 183c 4f3e f5f5 e73e
00000240: 223a 7d3e cbb8 143f bceb a33e b1aa cd3d
00000250: 3dad 1c3e 39e0 513d 2caf 5d3e 6454 123e
00000260: f994 963e d503 7c3e 9e66 593e bd08 2c3e
00000270: f72d 0e3e 9004 8c3d c98e 483e a932 cb3d
00000280: 5601 2c3e 0391 883e 2573 063e 9a75 893d
00000290: 5391 cb3e 21fd 073e df57 3d3e 7820 003f
000002a0: cb56 303e 2cbf 0f3e bf9c 973e 16da dc3d
000002b0: 3b1c 123e 12c4 b23e a842 253e 96b0 383e
000002c0: 0fba 1a3e d2c8 ad3e fa2c 293e ac34 593e
000002d0: 9bb9 003e 1dae 743e 05b5 cd3d c299 113f
000002e0: c40f 253f fe35 c23e b2a5 d53d 001a 2b3e
000002f0: 86fc 833e 2a5d bc3d 28dc b53e a5a0 403e
00000300: a0d0 8e3e e340 cd3d c628 1d3e 23fc 6f3e
00000310: 56a1 df3d ae93 513e 1ae0 833e e83e a13e
0.55651826 0.22040212 0.2194238 0.31601328 0.13709725 0.39497393 0.23990794 0.18195018
0.7113652 0.15927042 0.2021183 0.03852865 0.15583764 0.34266102 0.26466677 0.13997416
0.16815455 0.17330319 0.15601736 0.45398265 0.19329621 0.48484468 0.11524072 0.07310262
0.14932576 0.4024846 0.16225202 0.22847134 0.062029436 0.10040327 0.3671661 0.27873772
0.23905501 0.14701605 0.47838208 0.30740905 0.15780172 0.03168882 0.5056179 0.24912232
0.08759171 0.037848346 0.09131938 0.28434685 0.21057534 0.35763738 0.45675534 0.36706802
0.20288682 0.1469811 0.22154741 0.49327716 0.29596338 0.2015494 0.2749266 0.34211034
0.09633435 0.49561197 0.22192925 0.11861813 0.22067305 0.21802177 0.38373122 0.36512348
0.07620089 0.4986403 0.16994292 0.3708886 0.70894766 0.26915252 0.11563535 0.26594153
0.30133128 0.34401655 0.10196722 0.42162663 0.18678933 0.051368643 0.3156136 0.5399269
0.12695172 0.24276356 0.0994032 0.2048644 0.1286723 0.46135068 0.12813462 0.1501274
0.11366742 0.42127255 0.18847384 0.2854825 0.22828265 0.22602147 0.029305037 0.37662575
0.5398567 0.25824362 0.2101755 0.1482269 0.14687459 0.10803001 0.2200535 0.26331574
0.22013666 0.32382977 0.11309151 0.11178189 0.2880765 0.09037846 0.3313951 0.12013538
0.3014137 0.17063998 0.18705167 0.25204456 0.20453493 0.25268656 0.3182088 0.2720946
0.13188641 0.21885385 0.23842129 0.18438463 0.26842803 0.25789112 0.38887402 0.06532087
0.34063697 0.21732393 0.26388347 0.23506176 0.09212491 0.29369053 0.1935123 0.13773543
0.17705412 0.23584597 0.18126322 0.3365233 0.38705334 0.27081516 0.20237768 0.45304838
0.24729207 0.5809447 0.3201579 0.100423224 0.1530046 0.051239226 0.21648854 0.14290005
0.29410532 0.24610837 0.21230552 0.16800208 0.13884722 0.06836808 0.19585718 0.09921772
0.16797385 0.26673135 0.13129862 0.06711884 0.3975931 0.13280155 0.18490551 0.50049543
0.17220609 0.1403777 0.29611775 0.10783784 0.14268582 0.34915215 0.16138709 0.18036112
0.15110038 0.33942276 0.16521063 0.21211499 0.12570803 0.23894544 0.10044292 0.5687524
0.6447718 0.37931818 0.104319945 0.16709137 0.25778598 0.09197457 0.35519528 0.18811281
0.27893543 0.10022142 0.15347585 0.23436026 0.10919444 0.20466492 0.25756913 0.31493306
