Saved_models/MatchNN_100_500_1_0.pth (torch_old, 216279 bytes, 12 tensors)

lin_layers.0.weight f4 [100, 24]
000000 4a b8 49 be 64 36 9b 3e ce 68 c9 be c3 66 e9 be
       -0.19699207 0.30314934 -0.39337772 -0.45586213
000010 fe 40 0b 3e 4b 28 4e be f3 ec 15 3d 96 82 62 3d
       0.13599011 -0.20132558 0.036602926 0.055300318
000020 54 e9 0d 3e 99 22 4a 3e 21 10 83 be 7e 77 94 bd
       0.13858539 0.1973976 -0.25598243 -0.07249354
000030 6d 3b 18 bf 56 1c 20 be 55 12 1c 3d da 53 6a 3e
       -0.59465677 -0.1563581 0.03810342 0.2288355
000040 ca d9 16 3e 11 f2 d5 bd e3 36 2a 3e 44 11 2f 3d
       0.14731517 -0.10446561 0.166225 0.042741075
000050 81 ae 62 be 7c 28 64 be b0 62 58 bd 2c 05 4b be
       -0.2213688 -0.22281069 -0.05282849 -0.19826192
000060 7a 48 13 3e be 16 00 3f 4e c5 ac 3e 29 6b 8e be
       0.14383116 0.500347 0.33744282 -0.27816132
000070 3d fa 7a be dd 8b bd be a1 35 28 3e 95 82 a8 3e
       -0.24509521 -0.3702077 0.16426708 0.32912126
000080 fb 06 44 bd fb 72 aa bc 8c 25 1a be 1e 5b 5e be
       -0.04785822 -0.02080678 -0.15053385 -0.21714446
000090 65 e6 95 3e 3d bf 35 b8 02 0d c4 3d a4 f2 3f be
       0.2927734 -4.3331867e-05 0.095727935 -0.18744904
0000a0 6d 52 15 3e ea 89 78 3e 77 58 eb bd d3 a4 b7 bd
       0.14582224 0.2427136 -0.11491483 -0.089669846
0000b0 76 24 49 3f cb 33 46 be a0 4e 39 3e d9 c2 53 bd
       0.7857126 -0.19355695 0.180964 -0.051699493
0000c0 58 df c6 3e 12 93 34 be cb 26 36 bd c5 71 6f 3b
       0.38842273 -0.17634228 -0.04447059 0.0036536318
0000d0 06 b9 48 be 92 ca 9e 3d b4 a9 5c be 29 6e aa 3d
       -0.19601831 0.07753481 -0.21549112 0.08321793
0000e0 49 74 c1 be 4f 46 23 3f df 15 e3 be 21 18 30 be
       -0.3778403 0.6377916 -0.44352624 -0.17196704
0000f0 22 49 1e bd ae 1d e0 be e5 08 0a bc 52 be 68 3d
       -0.038643964 -0.43772644 -0.008424972 0.05682213
000100 06 ba 52 bd 72 12 8a 3e 34 b3 f3 3b 3b 54 9d be
       -0.051446937 0.26967198 0.007437134 -0.30728325
000110 bf d4 04 bf 5a 37 d8 3c 24 ec c5 bc e4 9f 2c 3e
       -0.51887125 0.026393581 -0.024160452 0.16857868
000120 de ca 03 3e cc 8f 8e 3d 2d ef 9c 3c a2 f0 18 be
       0.12870356 0.06961021 0.019157017 -0.14935544
000130 79 d3 b5 3d e9 ac 22 3f 03 5d 3e bc d2 e7 83 be
       0.08878226 0.6354509 -0.011618855 -0.25762802
000140 4f 40 6e bb a8 22 b7 3e 21 1b 0e 3e a6 af 71 3d
       -0.003635425 0.35768628 0.13877536 0.059005402
000150 bc 41 b0 bd 21 6d 00 be 82 7e 66 3e 0c 11 1b 3d
       -0.08606288 -0.1254163 0.22509196 0.037858054
000160 b2 45 0d bf fb 9c f6 bc a9 53 2d 3e 55 59 33 be
       -0.5518447 -0.030104151 0.16926445 -0.17514546
000170 70 f4 82 be 53 c3 8c be 86 8b f7 3c 8b 6d 69 3c
       -0.25577116 -0.2749277 0.030217897 0.0142473085
000180 ad 35 94 be ab c7 8e 3e 63 24 c9 be c5 ae 39 3d
       -0.289472 0.2788671 -0.39285573 0.04533269
000190 ec 0d 3a be 54 79 88 bd d3 16 19 3e a4 85 06 3e
       -0.18169373 -0.066637665 0.14950113 0.13136917
0001a0 5b 10 dd 3e 83 17 f6 be ce de 53 be 96 50 4e 3e
       0.4317654 -0.48064813 -0.20690462 0.20147929
0001b0 45 16 d1 bd bb 7d 03 3e f7 f8 4e 3e 53 d6 3f 3e
       -0.10209326 0.12840931 0.2021216 0.18734102
0001c0 c8 4a d8 3e 44 5f 06 3f 32 3f c4 be 4f 5f 74 bd
       0.42244554 0.52489114 -0.38329464 -0.059661206
0001d0 2e 75 27 3e 63 8c 20 3e b9 ff 48 3d ab cb b6 bd
       0.16353294 0.15678553 0.049072 -0.08925565
0001e0 55 f3 bf 3d 6b a0 a1 be 6e 1c 11 3f b9 2e 80 be
       0.09372584 -0.31567702 0.56684005 -0.25035647
0001f0 75 a3 3f be e4 e6 46 3e ed c5 c5 3e db 6c 0b be
       -0.18714698 0.19424015 0.38627568 -0.13615744
000200 28 3d ac bd 4a 39 4e 3d 88 9c d3 3e a7 75 08 3f
       -0.08410102 0.050347604 0.4133036 0.53304523
000210 3d 86 67 3d af 7d 13 bf 19 86 9d 3e b6 d3 e9 3d
       0.056524504 -0.5761365 0.3076637 0.11417334
000220 94 34 35 3e 56 54 50 3e 6a 5f 9e be 5f 6c 99 3e
       0.17695838 0.20344672 -0.3093217 0.29965493
000230 6c e7 e8 3e af f3 57 3e 4f 2e 42 be 05 c5 cb 3e
       0.4548906 0.21089052 -0.18962978 0.3979875
000240 85 59 53 3e c2 87 10 bd 4e 95 1f 3e 80 0e b3 be
       0.20639618 -0.03528572 0.15584299 -0.34972
000250 0a 2d 2c 3f 66 49 90 3e 72 fe e6 3d 6f 54 04 be
       0.67256224 0.28181 0.11279 -0.12922834
000260 5e 1e 69 3e f3 fc da 3e bc ea 95 be 5f e6 2d 3e
       0.2276549 0.4277111 -0.2928065 0.16982411
000270 63 b6 7e 3e 53 f5 fc be 9d 47 b5 be d7 b7 c3 3e
       0.24874263 -0.49405918 -0.354062 0.38226196
000280 96 7f 3f 3e 15 09 59 3d fd ca 28 be 14 19 11 3d
       0.18701014 0.052987177 -0.16483684 0.035424307
000290 06 69 54 3c cf 67 ec 3e bf 1f eb 3e db 46 82 3e
       0.012964493 0.4617295 0.45922658 0.25444683
0002a0 ad 8d 8c bd d3 56 c4 3e 38 2b a1 be 3a 8f 22 3e
       -0.0686296 0.38347492 -0.31478286 0.15874949
0002b0 fe c0 87 3e c7 87 9f 3e a7 c5 83 3d b4 15 4e 3e
       0.2651443 0.31158277 0.064341836 0.20125467
0002c0 8b b7 37 3e 9b 8a c0 be d9 d8 54 be 8e 34 c8 bd
       0.1794111 -0.37605748 -0.20785846 -0.09775649
0002d0 40 9e 96 3e f4 eb 9d 3e 31 bc 5a be d1 7f 56 be
       0.2941761 0.3084408 -0.21360852 -0.20947196
0002e0 1d 35 2c 3e 3a c0 ce bc 19 d7 13 3e ff c1 3a 3e
       0.16817136 -0.025238145 0.14437522 0.18238066
0002f0 e9 0d dd be ed 7f 76 3e ea 22 d9 be 82 28 59 be
       -0.43174675 0.24072237 -0.4240945 -0.21206859
000300 c0 fd 2b 3d c9 34 7c 3e e1 24 81 3f e0 d8 93 be
       0.04199004 0.24629511 1.008938 -0.288764
000310 b3 a9 cc 3e f1 b9 7f 3e ac 27 65 3e 15 55 48 be
       0.3997322 0.24973275 0.22378415 -0.19563706
000320 66 c9 97 3e 97 23 35 be 95 23 7f 3e ab 56 9d 3e
       0.29645842 -0.17689358 0.24915917 0.30730185
000330 d6 d1 16 be 2d 0c ae be 6d 8b bf be bd a1 3c 3e
       -0.14728484 -0.33993664 -0.3741106 0.18421073
000340 ba 45 0c be 31 0a 28 3f af b8 98 bd 66 2c bb 3e
       -0.13698474 0.6564055 -0.074571006 0.3655731
000350 af 22 b8 3e 6c fd eb 3e 2f fb 8f bd c0 44 62 3e
       0.3596396 0.46091783 -0.07030331 0.22096539
000360 7a 21 c0 be 8f b8 14 bf c5 ef da be 22 7f 37 be
       -0.3752554 -0.58094114 -0.42761055 -0.17919591
000370 f2 23 02 be 49 9c d1 3d 62 c7 86 3e 82 2c ad bc
       -0.12709025 0.10234887 0.26323992 -0.021139387
000380 09 a9 8f be 7b 8c 01 3f cb 30 6f bc af d0 4a 3f
       -0.2805865 0.5060498 -0.0145990355 0.79224676
000390 e3 f1 52 3e 35 90 ad bd 94 41 b8 3e 12 93 f8 be
       0.20600085 -0.08474771 0.35987532 -0.48549706
0003a0 96 38 37 be 08 37 5b be a6 1d a0 be 64 81 99 3d
       -0.1789268 -0.21407712 -0.3127262 0.074953824
0003b0 ea 47 94 3e a8 de 02 3f f8 03 04 bf 75 f5 0a 3f
       0.28961116 0.51120996 -0.51568556 0.5428079
0003c0 a4 77 c7 be 2b 01 07 3f 9c a5 c6 3d cc 96 3e be
       -0.38958466 0.5273616 0.09699556 -0.18612212
0003d0 67 3a 23 3e 2a 0e aa bd 09 5e 2d 3e b6 81 5a bc
       0.15940247 -0.08303483 0.16930403 -0.01333659
0003e0 23 e8 73 be e5 c7 35 3e eb c5 51 3e 86 84 d0 3e
       -0.23819022 0.17752035 0.20485656 0.40726107
0003f0 e7 fc de be 29 d3 64 bf ae 12 c2 3e 87 b3 72 3e
       -0.43552324 -0.89384705 0.37904876 0.23701297

lin_layers.0.bias f4 [100]
000000 74 b6 22 bd c5 47 31 3d 93 0e 6a be c7 3c fb 3d
       -0.039724782 0.043281335 -0.22857122 0.12267452
000010 34 8b 33 be e8 45 69 bc a6 77 64 be 00 d2 80 3d
       -0.1753357 -0.014237858 -0.22311267 0.06290054
000020 a3 65 3a bd 3d 4c 85 3e 48 52 1f 3e ea 62 10 3e
       -0.045507085 0.26034728 0.15558732 0.14100233
000030 32 ac 1a 3e 03 8b 05 3e db 2e 13 3d bd 81 a8 3e
       0.1510475 0.1304131 0.035933357 0.32911482
000040 f1 07 06 be cb c4 9b bc 51 99 16 bc 5b ab b4 3b
       -0.13088967 -0.019014737 -0.009191827 0.005513591
000050 4c 19 96 be 3c 63 3e bc 04 bf ff bd a7 7b 37 3c
       -0.29316175 -0.011620339 -0.12487605 0.011198915
000060 6d 7f 9a bb f9 7f 1a 3e 33 77 67 3d 0c 48 9f 3c
       -0.0047148974 0.1508788 0.05651016 0.019443534
000070 a8 ac a1 be 68 0f f6 3d 91 77 ec 3d 47 62 57 be
       -0.3157704 0.12014657 0.11546243 -0.21033584
000080 d0 2b a2 bd 8e 56 3e 3e cb a4 61 3e 79 ff cc bd
       -0.07918513 0.18587705 0.2203552 -0.10009665
000090 aa e0 f7 3d c0 a4 56 bd 74 a6 cc 3d 70 37 70 3e
       0.12103398 -0.05240321 0.09992686 0.23458648
0000a0 9e 6e 0f be f8 6d 80 be ae 32 bd 3e 5a 74 9f 3d
       -0.14007041 -0.250839 0.36952728 0.07785864
0000b0 00 f6 09 be ea af 06 3e e7 48 2e 3e b3 ac b3 3e
       -0.13472748 0.13153043 0.17019998 0.35092697
0000c0 90 76 0e bd 44 2a 69 be 91 a3 ec 3d 08 45 a0 3e
       -0.03478104 -0.2277003 0.11554635 0.31302667
0000d0 6c 8f 5e bd bf 80 c2 bc 7b f8 39 be d2 80 d4 bd
       -0.054335997 -0.023743032 -0.18161194 -0.10376133
0000e0 6c 2b 78 be 47 ee 0f be 05 2a 29 bd 02 1d b1 3e
       -0.24235314 -0.1405574 -0.04129984 0.34592444
0000f0 23 eb 7c be 77 42 e6 3d e5 91 34 3e 4d 0a 8b 3d
       -0.24699073 0.11243146 0.1763378 0.06789074
000100 6a d2 d6 3a 57 4b 93 3e 1d 9b 05 be 64 48 64 bd
       0.0016389613 0.28768417 -0.13047452 -0.0557331
000110 46 d1 bb bc a6 af d3 3d be ec d6 be 0c 7d 9e 3c
       -0.022926938 0.10336237 -0.41977495 0.019346736
000120 13 bc 8f be c7 18 56 be 0d 89 44 be b2 93 36 3b
       -0.28073177 -0.2090789 -0.19192906 0.002785903
000130 49 78 96 bd b2 b0 1c 3e 59 a8 fe bd 5b 9a 04 3e
       -0.07347161 0.15301779 -0.124344535 0.12949507
000140 d0 09 c3 3a 42 c1 53 3c 6d 67 00 3e e7 7e 18 3e
       0.0014880244 0.012924494 0.12539454 0.1489216
000150 e4 6d d0 3c 54 07 f7 3d 57 59 93 3d 2e bf 38 be
       0.025443025 0.120619446 0.071947746 -0.1804168
000160 4e 27 82 be 95 d0 03 be af 87 02 be 20 25 2b be
       -0.25420612 -0.12872536 -0.12747072 -0.16713381
000170 ce 1c a0 3e ed 63 da bc 33 a4 46 3d 3e 4d 94 3e
       0.31271976 -0.026658976 0.048496436 0.2896518
000180 cf ba 39 3d 8e d3 63 3d 77 0b ba bd eb 7f 00 3e
       0.04534417 0.055621676 -0.09084218 0.12548797

output_layer.weight f4 [500, 100]
000000 f4 ba 65 be 71 b9 3e bd 09 49 b5 3d c4 5a 44 be
       -0.22434598 -0.04656357 0.08851821 -0.1917525
000010 42 c9 b7 3d e2 0d 7c 3d b4 23 0a 3d 0b 31 a9 3b
       0.08973934 0.061536677 0.033725455 0.005163317
000020 32 47 6d bd d7 df 01 3e fb 90 eb bd 6b a8 bc 3d
       -0.057929225 0.12683044 -0.11502262 0.09211811
000030 63 ba 21 3e e6 62 75 3d 18 7e 63 3d ce 46 79 3c
       0.15793757 0.05990877 0.055540174 0.015214635
000040 02 92 74 bd 4c 66 dc 3d 5c c7 26 3e 5c c3 31 3e
       -0.059709556 0.10761699 0.16286987 0.1735968
000050 7f 0a 40 bd 9d 3d 44 bc e8 a5 96 3e 3c 55 c6 3c
       -0.04688501 -0.01197758 0.2942345 0.024210565
000060 cc 57 21 3e bc 75 48 bb 45 45 41 be 19 31 3b bc
       0.15756148 -0.0030587753 -0.1887408 -0.01142528
000070 65 65 5d 3e a1 46 e6 3d 1a 90 03 be 33 ff 56 bd
       0.2162071 0.1124394 -0.12847939 -0.05248947
000080 b4 ae ef bc 9e 1a 0d be 3d c6 c8 bd 03 07 53 3c
       -0.02925811 -0.13779685 -0.09803436 0.01288009
000090 65 d3 22 3e 60 8f 93 bd 2a 2d d2 3d 66 91 c3 bc
       0.15900953 -0.07205081 0.102625206 -0.023873042
0000a0 7b b8 0e bd 5b 94 be 3d f5 2b cf bc 8c c6 e8 bd
       -0.034843903 0.0930564 -0.025289515 -0.11365995
0000b0 76 3b 86 bb 1e 65 f1 3d c9 78 a9 be 70 de 47 3e
       -0.0040964438 0.11786865 -0.33099964 0.19518447
0000c0 aa 76 62 3d 71 a4 6c bd 19 69 2f 3e f5 29 24 bd
       0.055288948 -0.05777401 0.17129935 -0.040079076
0000d0 74 d5 e9 bd bb 8a a2 bd 87 a3 8a 3c da 1f d6 3d
       -0.11417666 -0.07936617 0.016923679 0.10455294
0000e0 46 9a 74 3d a8 53 b0 3c 98 ab db 3d 43 c3 74 bd
       0.05971744 0.021524265 0.10726088 -0.05975653
0000f0 d1 e6 25 3d 23 08 54 3e 7c 67 05 3e d6 0e 5b bd
       0.040503327 0.20706229 0.13027757 -0.053480946
000100 6d b5 0a be 9c 81 9b 3d ad 94 85 bd 94 1e 71 bc
       -0.13545771 0.075930804 -0.06522498 -0.014716763
000110 0f 50 41 be e8 e5 32 bd 12 f7 23 3e ca 32 86 bd
       -0.18878196 -0.043676287 0.16012219 -0.06552656
000120 05 23 c2 3d d9 ea b5 3c 6d ca 03 be a1 47 49 3e
       0.09479336 0.02220671 -0.12870188 0.1965623
000130 80 33 cb 3d d5 80 91 3b 09 2e 09 be 44 24 7d 3d
       0.09921932 0.004440407 -0.13396467 0.061802164
000140 61 f4 2b 3e c2 f8 e1 bd ec 34 49 3d 73 91 dc 3d
       0.16792442 -0.11033775 0.049122736 0.1076993
000150 18 c8 c7 3c 0d d9 55 3a 49 00 91 be bf 47 3c 3d
       0.024387404 0.0008157648 -0.2832053 0.04596686
000160 c1 53 13 3e 98 48 1c be bb 05 fe 3d 77 38 97 be
       0.14387418 -0.15262067 0.12403437 -0.29535267
000170 4d b1 38 3c ad 25 e1 3d 25 a3 30 bd 18 03 88 3d
       0.011272741 0.10993514 -0.043124337 0.06641215
000180 ab 77 05 3d fb 42 0e bd f4 74 b2 bc 1a d1 e1 3d
       0.032584827 -0.034731846 -0.021784283 0.11026211
000190 3b 97 de bd 9d 95 00 3e 62 fe 4e 3d 0f 51 36 3d
       -0.10868689 0.12557073 0.050535567 0.044510897
0001a0 07 8d 09 39 ae 23 94 3e e7 bf 0f 3e 9a 9f d6 3d
       0.00013117875 0.2893347 0.14038049 0.1047966
0001b0 74 5b 0e 3e 6e 7e 81 bd 3b 04 c0 bd 51 f0 83 bd
       0.13902074 -0.06322943 -0.09375807 -0.06442321
0001c0 fa 00 fb bd 45 8b 9d 3d 98 91 10 3e 41 8e da bd
       -0.12256046 0.07692579 0.1411804 -0.10671664
0001d0 c4 f2 b9 bd 0a c2 37 3e 2c b9 47 3d f9 4d f8 bd
       -0.09079507 0.17945114 0.048760578 -0.12124247
0001e0 c6 59 c2 3d ff 7a 73 bd ef 51 c0 bd aa fe b1 3d
       0.09489779 -0.05944347 -0.093906276 0.086911514
0001f0 c2 7a 01 3e 2c 4d 9b bd 5d e5 0e 3e ad e5 fb bd
       0.12644485 -0.07583079 0.13954683 -0.122996666
000200 fb f5 9b 3c e0 e6 74 3e f2 01 38 be ab 8a 84 3d
       0.019038191 0.23916197 -0.17969492 0.06471761
000210 a5 6a 6c bd 7f e2 0f be eb be 61 3d d2 b1 f3 bd
       -0.05771889 -0.14051245 0.055113714 -0.11899151
000220 22 b4 10 3e 07 90 74 3e 02 97 d0 bd 18 03 0f 3e
       0.14131215 0.23883067 -0.101850525 0.13966024
000230 c9 8c 6e bd f7 13 eb be ce 00 e1 3d 78 de 06 3e
       -0.058239732 -0.4591367 0.109864816 0.13170803
000240 42 58 20 3e 96 fd 19 bb 87 4f 7b bd bc bd 7d bd
       0.15658668 -0.0023497096 -0.06135514 -0.061948523
000250 27 50 0e be a3 d8 22 3e 44 75 45 bd b7 02 87 bd
       -0.13897763 0.15902953 -0.048207536 -0.06592315
000260 1b 49 91 be e6 f7 08 bd 63 32 b2 bc a7 94 76 bd
       -0.28376088 -0.03343954 -0.021752542 -0.06020036
000270 42 09 8f 3d d5 7f 7c 3e 03 f9 3c 3d c6 a0 3c 3e
       0.06984188 0.24658139 0.046135914 0.18420705
000280 a2 24 f4 3d 4e f0 39 3e 2a 42 89 3c c3 a0 e8 3d
       0.1192105 0.18158075 0.016755182 0.11358788
000290 dc 56 cf bd 54 d7 04 3e b1 8d ed bc 6e e0 b5 3d
       -0.10123989 0.12972766 -0.028998228 0.08880697
0002a0 1a 6e 10 be 00 d7 2d bd 51 16 9f 3d 58 45 83 3e
       -0.141045 -0.042441368 0.077679284 0.25638843
0002b0 cd 42 c7 bd 07 02 e9 bd 71 d1 43 3e 8c 81 fd bd
       -0.09729538 -0.1137734 0.19122864 -0.12378225
0002c0 f2 8b 29 3c a3 3e 00 be 7e 72 45 be 6d c2 c6 3d
       0.010348307 -0.12523894 -0.19281957 0.097050525
0002d0 0d 7c 0c 3d ec b7 0f 3c 8b 6b 22 be f8 b2 b5 bd
       0.03429799 0.008771878 -0.15861337 -0.08872026
0002e0 f8 e4 04 bc 67 ab a2 3c 7a 5a f3 bc a9 f7 ac be
       -0.008111231 0.019857122 -0.029706229 -0.337827
0002f0 f6 14 3f be e8 92 87 bb 97 69 95 bd 22 fd 90 3d
       -0.1866034 -0.0041373856 -0.0729553 0.07079531
000300 8d 31 0f 3e ea 85 9d bd fb 89 a9 3d 9b 69 84 bd
       0.13983746 -0.07691558 0.08278271 -0.06465455
000310 a4 82 d0 bc 49 30 4e bd 68 9a 5e bd f0 2c 8a 3d
       -0.02545292 -0.050339017 -0.054346472 0.067468524
000320 76 69 1e 3d 0a 6c 6e be e5 ca 4d bd 1e 47 34 3e
       0.038674794 -0.23283401 -0.050242323 0.17605254
000330 8a f2 c4 bd f9 a4 26 3c ff b8 c6 bd 2a d3 06 bc
       -0.09616573 0.0101711685 -0.09703254 -0.008229056
000340 86 73 6b 3e 21 93 c7 3d 35 64 57 3c 44 91 18 3e
       0.22993287 0.097448595 0.01314645 0.14899164
000350 b3 b4 ef bd f8 fc 03 bc bb 45 ad bd 0b 51 31 bd
       -0.117043875 -0.008055918 -0.08460566 -0.04329018
000360 fd 97 2e be e4 a1 fe 3d 53 2c be bd 4a 71 49 bd
       -0.17050166 0.12433222 -0.09285798 -0.049180306
000370 a2 f9 eb 3c bc 25 05 bd e0 f8 4d 3b 88 2f 34 3e
       0.028805558 -0.03250669 0.0031428859 0.17596257
000380 e5 42 65 be 63 83 68 3d 85 c5 06 bd 56 64 e1 bb
       -0.223888 0.056765925 -0.032903213 -0.006878416
000390 c2 2c c3 3d 10 ce 69 be 65 a4 d9 bd 1d 7c 36 bc
       0.09530021 -0.22832513 -0.10627059 -0.011137989
0003a0 b3 90 81 be c0 f0 6c bd 19 88 67 bd 10 ae a1 bd
       -0.2530571 -0.057846785 -0.056526277 -0.07894528
0003b0 a7 af 5e 3d 9f ab 1d 3d e1 74 93 bd a1 44 69 3e
       0.054366734 0.03849375 -0.07200027 0.22780086
0003c0 e3 b9 fb 3e 60 1b b0 3d 0d 6c d2 bd 7f 09 35 bd
       0.49165258 0.08598971 -0.10274515 -0.04419851
0003d0 59 01 ca bc 4b a2 e1 3d df c4 bd 3d ad 3f b3 bd
       -0.024658846 0.11017283 0.09266066 -0.087523796
0003e0 bb 79 ab 3d 29 44 15 be e1 ef a6 bc 62 c9 99 bd
       0.083728276 -0.14576782 -0.020378055 -0.07509114
0003f0 b7 29 7b 3d 71 5c 8d bc 4f a8 eb 3c 1f f5 70 b9
       0.06131908 -0.017255994 0.02876678 -0.00022979498

output_layer.bias f4 [500]
000000 28 df 50 3e 3a 44 f2 3d 49 24 2f be cd 7a 4c be
       0.20397627 0.118294194 -0.17103685 -0.1996872
000010 2f 3b cd bb 42 71 8a 3e a1 3b dd 3d 86 ee 5e bd
       -0.0062631587 0.27039534 0.10802389 -0.054426692
000020 0b 98 43 3e b4 07 e9 bd 35 20 6a be 43 92 14 bd
       0.19100969 -0.113784224 -0.22863849 -0.0362723
000030 d5 ae 39 be 30 fa 77 3e 4b ae 2b 3e 7e a6 69 3e
       -0.181331 0.24216533 0.16765706 0.22817418
000040 6b bc f4 bc 4c b2 3e be c6 00 88 be a5 e9 4f 3e
       -0.029875001 -0.18622702 -0.2656309 0.20303972
000050 60 08 99 bd 8b 56 a6 3d 7a 13 9c be af bf 87 bd
       -0.074723005 0.081219755 -0.3048361 -0.066283576
000060 ba 91 2f 3d a0 82 94 3d 56 71 58 3d e7 a0 4b be
       0.042863585 0.07251477 0.05284246 -0.19885598
000070 ea 8e e9 3d bf c6 2d be 3a 73 f2 3d e3 35 4a be
       0.11404212 -0.16970347 0.11838384 -0.19747119
000080 42 3c e0 3a 52 d8 4e 3e 3e 00 39 bd 1d fb 40 3e
       0.0017107802 0.20199707 -0.045166247 0.18845792
000090 0c eb b9 bd 71 b8 8f be c7 b9 80 be c2 82 91 3d
       -0.09078035 -0.28070405 -0.25141737 0.07105018
0000a0 3a 56 e3 bd 7f be 7c 3d 83 38 88 3e 97 b7 c5 3d
       -0.11100431 0.06170511 0.26605615 0.096541576
0000b0 ed 0d 39 be 36 c7 f5 bd b4 c5 1c 3e ac d8 e7 bd
       -0.18071719 -0.12000887 0.15309793 -0.11320624
0000c0 fe be 28 be 9a 3a 15 3e 4e d2 18 3e e9 92 27 3e
       -0.16479108 0.14573136 0.14923975 0.16364636
0000d0 36 1e b6 bd 69 e5 f9 3d c1 a3 b7 3c 83 01 99 bd
       -0.08892481 0.1220196 0.022416951 -0.074709915
0000e0 3d 13 3c be 1f 96 40 3e 17 dc fe 3c 70 4d 36 be
       -0.18366714 0.18807267 0.031110806 -0.17802978
0000f0 0e a1 69 3d 39 64 96 3e b0 c9 98 be d4 ee 70 3e
       0.05703836 0.2937334 -0.29841375 0.23528606
000100 96 0d 5c be 26 6d 7d 3e 60 a1 1f 3d 75 26 7c 3e
       -0.21489558 0.24748668 0.03897226 0.24624045
000110 e3 55 5f bd f1 fa 31 3e c2 ae 41 bd a7 5f 17 be
       -0.054525267 0.17380883 -0.047285803 -0.14782582
000120 50 2d 45 be 57 08 12 3e 06 3f 39 3e 49 d7 b6 bd
       -0.19255567 0.14260994 0.18090448 -0.08927781
000130 88 2e 4e 3e 95 fa 7a be 6b eb d8 3d b1 48 92 be
       0.20134938 -0.24509652 0.105917774 -0.28571084
000140 9d 8f 46 3e fd bf 64 3d e4 6a ef bd 62 cf 02 be
       0.19390722 0.055847157 -0.1169031 -0.12774423
000150 b3 f9 f7 ba 62 bb f8 3d 80 1f 27 be b8 5f 47 bd
       -0.0018919021 0.121451154 -0.1632061 -0.04867527
000160 b8 68 5d 3e 6c fd 11 3e ba df 67 3e c1 3f 1f 3e
       0.21621978 0.14256829 0.22643939 0.15551664
000170 d0 c9 21 be e3 49 43 be 6e 9e 00 be a1 38 1c be
       -0.15799642 -0.19071154 -0.12560436 -0.15255977
000180 53 d3 0c be f1 bf e2 3d eb d5 78 3d c5 ca d3 bd
       -0.13752489 0.11071766 0.060750883 -0.103414096
000190 11 cd ef bd 2e 84 47 3e 56 76 35 3d 0b cf 3a be
       -0.11709035 0.19484016 0.044302307 -0.18243043
0001a0 9e 77 14 bd 2a d4 a7 bd fc 65 57 bd 2b 80 e1 bd
       -0.03624689 -0.08194764 -0.052587494 -0.11010774
0001b0 49 0c 05 3e 68 e7 47 3e d4 73 24 be d6 65 2b bb
       0.12992968 0.19521868 -0.1605981 -0.0026153228
0001c0 d0 ad 11 be 29 e6 c2 3d 9e 95 61 bd 87 b9 a2 bc
       -0.1422646 0.09516556 -0.055074327 -0.019863857
0001d0 48 b7 5e 3e 83 70 90 3e 59 19 37 be ef 21 da bc
       0.21749604 0.2821084 -0.17880763 -0.026627509
0001e0 b5 aa 91 3e 69 02 99 be 89 91 88 be ce 96 e2 bd
       0.28450552 -0.2988465 -0.26673535 -0.1106392
0001f0 70 11 92 3d a3 67 e3 3d 29 6b ee bd b6 c7 32 3e
       0.07132232 0.111037515 -0.11641533 0.17458996
000200 87 d1 06 be 9b 68 e1 3c 40 84 db bd a0 22 4f be
       -0.13165866 0.0275157 -0.10718584 -0.20228052
000210 d6 2b 7f 3e cb ca 35 3e 1c dd 4d 3e 20 4e 8a be
       0.24919066 0.1775314 0.20103878 -0.2701273
000220 98 2a 58 3e f6 ab 36 3d db 9f 65 3e 34 29 8f 3e
       0.21109998 0.04459759 0.22424261 0.27961123
000230 7a ea 14 be 73 56 28 be 4d 77 3a be 10 62 e9 3d
       -0.1454257 -0.16439228 -0.18209572 0.11395657
000240 17 fc 3d be fa 37 e8 bc 08 b5 91 bd 84 a7 40 be
       -0.18553196 -0.028347004 -0.07114607 -0.18813902
000250 4c f2 1a 3e 11 92 92 3e 71 2c 16 be c7 8c 61 3e
       0.15131491 0.28627065 -0.1466539 0.22026359
000260 a9 da 86 be 99 88 1b be e1 63 58 3e 26 4c 8a 3d
       -0.263387 -0.15188827 0.21131851 0.067528054
000270 1b 60 95 3c 89 6b e0 3d f5 ea 36 3a db 07 41 3e
       0.018234303 0.10958011 0.00069777603 0.18850653
000280 7f 3c 86 be 38 63 7c be 40 79 2e 3e 19 f4 c0 bd
       -0.2621803 -0.24647224 0.1703844 -0.09421558
000290 ba 3f f1 3d c3 90 f9 bd d0 13 3c bd 41 2f 57 bd
       0.11779733 -0.12185814 -0.045917332 -0.0525353
0002a0 63 0a 26 3e fe 58 fe bd 10 c4 0f bd f0 d4 91 be
       0.162149 -0.12419318 -0.03509909 -0.2848277
0002b0 c9 bd a1 3e ed 14 01 bc ec 1c c9 3d 11 90 a0 bd
       0.31590107 -0.007878524 0.098199695 -0.078399785
0002c0 39 a6 50 be 98 d3 80 be 8e 92 43 be a1 7d be bc
       -0.20375909 -0.25161433 -0.19098875 -0.023253264
0002d0 c2 be 5b 3e 77 77 12 be e1 d4 68 3c ab d7 5d be
       0.21459487 -0.14303385 0.014210911 -0.21664302
0002e0 07 ed 06 bd 2b 66 7e 3d 35 f2 88 3c e3 ed 76 be
       -0.03294089 0.062109154 0.016717056 -0.24114184
0002f0 f9 a8 17 be bd fa a2 bd 8e 16 28 bd 77 a5 ce bd
       -0.14810552 -0.07957981 -0.041037135 -0.10090154
000300 5a 89 9e 3d d6 58 29 3d 3c b4 00 3e 5b 5a 35 be
       0.077410415 0.041344486 0.12568754 -0.17710249
000310 6d e5 26 3e 4b ac 8f bc 96 06 29 3e 28 a9 46 bd
       0.16298456 -0.01753821 0.16506419 -0.048501164
000320 54 37 ce bd 85 3f f9 3d f2 41 00 3e 73 69 94 3d
       -0.10069147 0.121703185 0.12525156 0.07246675
000330 5f 76 3c be 08 c7 38 be 42 60 02 3c b1 c2 1e be
       -0.1840453 -0.18044674 0.00795752 -0.15503956
000340 ce 4f 44 3d 13 b4 84 3e c7 d9 07 be 46 f0 44 be
       0.04792767 0.25918636 -0.13266669 -0.19232282
000350 cc 6f d9 bd e3 3b 90 3e 94 75 4f be 86 6b 7b be
       -0.10617027 0.2817069 -0.20259696 -0.24552736
000360 52 0e 07 3e df bc b8 bd ad 19 c8 bd 01 8f 49 3e
       0.13189057 -0.09020399 -0.09770522 0.19683458
000370 de d5 f1 bc 80 fb 4f be 58 82 bb bd 25 3c aa bd
       -0.029520925 -0.20310783 -0.091557205 -0.08312253
000380 23 e4 1c 3e 71 60 20 be d5 b1 4a 3e 01 48 1d 3d
       0.15321402 -0.1566179 0.197944 0.038398746
000390 d9 9a 80 3d af 0a 2a be 26 42 10 be 06 6a fc 3d
       0.06279535 -0.16605638 -0.14087734 0.1232491
0003a0 23 c0 13 3e a8 d2 fd bd 71 3d 95 bc 37 05 08 3e
       0.14428763 -0.12393695 -0.018217774 0.1328324
0003b0 5e 1b fa 3c 5f e0 6d be 57 fa d8 3c f7 3a 8e be
       0.030530628 -0.23230122 0.026486559 -0.27779362
0003c0 6a 60 0b 3e b1 0f 71 be 53 36 c3 ba d7 48 d8 3d
       0.13610998 -0.23541142 -0.0014893509 0.10560768
0003d0 38 50 ec bd 0d 84 3d 3d 27 4c 37 be 66 68 d9 3d
       -0.11538738 0.04626851 -0.17900144 0.106156155
0003e0 2b 8d 9b 3e 41 90 18 be 22 10 21 be 3c 80 31 3e
       0.3038114 -0.14898778 -0.1572881 0.17334074
0003f0 3e d7 ac 3d a1 e5 ab bd 4c 4d 82 be ea 27 52 3e
       0.08439492 -0.083934076 -0.25449598 0.20523039

first_bn_layer.weight f4 [24]
000000 dc 51 68 3f 2b 54 3c 3f 32 6c 6b 3f 0f 49 89 3f
       0.9074991 0.7356593 0.9196197 1.0725421
000010 97 fb 38 3f 55 00 59 3f 2d 53 49 3f 0f 86 8a 3f
       0.72258896 0.8476613 0.7864254 1.0822161
000020 cb 72 92 3f ac 51 8c 3f 5f eb 89 3f 85 36 80 3f
       1.1441282 1.0962424 1.0774955 1.0016638
000030 d6 7d 8d 3f 80 d6 8c 3f 97 7a 91 3f 31 2a 68 3f
       1.1054027 1.100296 1.1365536 0.9068938
000040 b1 4e 7f 3f b3 0f 57 3f 09 2a 81 3f b5 50 8d 3f
       0.9972945 0.8400833 1.0090953 1.1040255
000050 a3 3f 69 3f e7 9f 6f 3f 48 25 78 3f f9 f9 84 3f
       0.91112727 0.93603367 0.96931887 1.0388786

first_bn_layer.bias f4 [24]
000000 ce 27 5b bc a8 07 2d bd 48 43 ac bc cf df f5 bd
       -0.013376189 -0.04224363 -0.021028176 -0.12005579
000010 57 f0 0e be fc c9 54 3d 27 8b 5b bd 15 42 ad 3d
       -0.1395887 0.05195044 -0.053599503 0.0845987
000020 68 46 00 3e d6 31 0c 3e 8d c4 93 3d ee 97 b2 bc
       0.12526858 0.13690886 0.072152235 -0.021800961
000030 aa 14 e3 3d 37 d4 05 3d 7d 47 94 bc d5 e6 31 be
       0.11087926 0.032673087 -0.018100495 -0.17373212
000040 a4 f4 ed bd c8 d0 f7 3c 3c 11 66 bb d0 cd be 3c
       -0.11618927 0.030250922 -0.0035105487 0.023291498
000050 bf 3d 4d 3d f8 9e 7c 3d 0a 8e c3 bd 08 94 ad 3b
       0.050107714 0.061675042 -0.09548576 0.0052971877

first_bn_layer.running_mean f4 [24]
000000 29 34 d5 3d 1f bc c7 3c a4 a1 0a 3d a9 bc 9b 3d
       0.104103394 0.024381695 0.03384556 0.076043434
000010 e3 83 01 3b d0 71 42 3f 66 37 c5 3c a9 5f d8 3c
       0.0019762449 0.75954914 0.024074268 0.026412802
000020 df 9a 50 3d 75 c0 ad 3e 56 ea 0c 3f 2a 75 51 3f
       0.050928947 0.33935896 0.5504507 0.81819403
000030 1d 9a 0d 3f a3 66 1e 3e bd 41 db 3c 45 e8 8c 3b
       0.55313283 0.1546884 0.026764745 0.0043001496
000040 60 9f 0c 3f 08 78 25 3f e2 a2 1d 3f 3d 79 e9 3e
       0.54930687 0.6463628 0.61576664 0.4560031
000050 d8 0d 5e 3d 7f bf d9 3e 3b d6 58 3e ff 24 e2 3e
       0.05421242 0.42528912 0.21175472 0.4416885

first_bn_layer.running_var f4 [24]
000000 2f e6 be 3d 41 1f f6 3a 43 f6 2a 3a 92 77 28 3b
       0.09321248 0.0018777625 0.0006521681 0.0025706035
000010 5b 6e 89 39 83 7b 8a 3b 93 05 63 3b d2 94 19 3b
       0.00026212898 0.0042261495 0.0034640774 0.002343465
000020 24 b5 b6 3b de b9 0f 3d be 67 c0 3c 54 9c cc 3c
       0.005575793 0.035089366 0.023486968 0.024976887
000030 4b d6 3a 3d bf 23 af 3c 6c b5 32 3b fb 6f ba 39
       0.045614522 0.02137935 0.002726878 0.00035560117
000040 88 96 15 3d 88 f0 f4 3d cb 10 44 3b ab 94 7a 3c
       0.03652051 0.1195994 0.0029917236 0.015294234
000050 87 52 9a 3a 24 84 0a 3c 9c 35 92 3b 4f f2 fc 3b
       0.0011773863 0.008454356 0.004461957 0.007719315

bn_layers.0.weight f4 [100]
000000 41 04 6e 3f a3 8a 63 3f d1 30 6f 3f ac f9 62 3f
       0.9297524 0.8888342 0.9343386 0.8866222
000010 bf cd 6d 3f c6 6e 68 3f 67 7d 62 3f 7b 92 6e 3f
       0.9289207 0.90794027 0.884726 0.9319226
000020 7e 2d 7f 3f 62 df 6f 3f 9a 34 69 3f 08 68 74 3f
       0.9967879 0.9370023 0.9109589 0.9547124
000030 2d aa 68 3f 7d 6c 5e 3f c8 01 7e 3f 7a 88 6b 3f
       0.9088467 0.8688429 0.9922147 0.9200512
000040 bd fd 5a 3f 86 12 61 3f f6 e2 75 3f ec 75 76 3f
       0.85543424 0.8791889 0.9604944 0.96273685
000050 3a 80 7c 3f d1 b3 82 3f 82 24 6f 3f b5 99 77 3f
       0.9863316 1.0211126 0.9341508 0.96718913
000060 fb 49 82 3f 68 55 81 3f 12 38 68 3f 6e d6 80 3f
       1.0178827 1.0104189 0.90710557 1.0065439
000070 7e e9 76 3f 01 d1 81 3f 9e 6a 76 3f 67 08 6e 3f
       0.9645003 1.0141908 0.96256435 0.9298157
000080 59 d7 5e 3f 64 0f 72 3f 46 ab 80 3f bd ae 7c 3f
       0.87047344 0.94554734 1.0052269 0.9870413
000090 aa e8 6b 3f 7a 1d 81 3f 86 a2 8a 3f 44 b8 89 3f
       0.9215189 1.008712 1.0830848 1.0759358
0000a0 a3 65 83 3f 01 e7 74 3f 0f 76 7c 3f 9a 73 5a 3f
       1.0265392 0.95664984 0.98617643 0.85332644
0000b0 b4 07 68 3f a3 64 78 3f 52 ef 77 3f 28 a9 64 3f
       0.90636754 0.9702856 0.9684955 0.8932061
0000c0 38 c6 65 3f 20 b0 6b 3f 7a a0 7b 3f 65 7a 53 3f
       0.8975558 0.9206562 0.9829174 0.82608634
0000d0 1a 47 80 3f b6 b3 52 3f b5 df 57 3f 92 ba 81 3f
       1.0021698 0.8230547 0.84325725 1.0135062
0000e0 4d 7b 5c 3f 88 9f 76 3f ad 58 77 3f c5 cf 56 3f
       0.8612564 0.96337175 0.96619684 0.8391078
0000f0 fd 25 84 3f ee 19 82 3f 33 fe 65 3f ff a2 6a 3f
       1.0324093 1.0164163 0.89841 0.9165496
000100 c3 2f 6b 3f 59 b6 7f 3f 07 20 5e 3f 42 a2 75 3f
       0.91869754 0.99887615 0.8676762 0.9595071
000110 4c 8e 7f 3f df fc 5e 3f 0a f2 94 3f ab 9b 6c 3f
       0.998265 0.871046 1.1636364 0.9242503
000120 b5 b4 83 3f b3 ed 60 3f 16 65 85 3f 64 de 78 3f
       1.0289522 0.878627 1.0421474 0.9721434
000130 80 0e 76 3f 05 a3 61 3f 82 54 79 3f 33 24 91 3f
       0.96115875 0.88139373 0.97394574 1.1339172
000140 a7 f4 6e 3f 9a 1a 51 3f 99 7b 64 3f a8 cc 69 3f
       0.9334206 0.81681216 0.89251095 0.91327906
000150 55 0e 6f 3f b6 69 64 3f de e6 5e 3f db 12 6b 3f
       0.93381244 0.892238 0.87071025 0.91825646
000160 01 fe 7b 3f 06 e1 59 3f 47 25 60 3f 0d c2 85 3f
       0.98434454 0.85108984 0.8755688 1.0449845
000170 5c fe 57 3f 73 c8 6a 3f d6 34 74 3f 86 56 71 3f
       0.84372497 0.9171211 0.9539312 0.9427265
000180 5d 83 60 3f fd 3f 6a 3f b6 5d 81 3f 6f c9 72 3f
       0.87700444 0.9150389 1.0106723 0.94838613

bn_layers.0.bias f4 [100]
000000 85 0c fe bd 66 2f dc bd 87 31 53 bd 39 93 34 be
       -0.12404732 -0.10751228 -0.051560905 -0.17634286
000010 71 da a3 bc 0c 3d de bd cd a3 c3 bc 82 53 17 be
       -0.020001622 -0.108514875 -0.023881817 -0.1477795
000020 41 20 f1 3c e1 77 19 be 5a 15 2b 3e 86 23 3a be
       0.029434325 -0.14987136 0.16707364 -0.18177614
000030 1b c6 f3 3d 22 0d 3f be 80 de 4f 3e 00 49 d3 bd
       0.1190302 -0.18657354 0.20299721 -0.10316658
000040 77 75 1b be fd 75 56 be 65 62 4c 3e 52 d1 5b 3e
       -0.15181528 -0.20943446 0.1995941 0.21466568
000050 1d 8b 18 be 83 88 23 be 30 9a 93 bd 0e 73 b5 bd
       -0.14896818 -0.15970044 -0.07207143 -0.088598356
000060 c8 fe 19 3e 4f 71 2e be 96 bd 92 bd 1b 21 18 3e
       0.15038598 -0.17035411 -0.07165067 0.14856379
000070 cb cf 58 be ee 24 56 3e 53 2f 54 3e a9 46 f1 3d
       -0.21173017 0.20912525 0.20721178 0.117810555
000080 91 ec 3b 3e 94 c0 61 be 44 82 d1 3c 5f 84 e4 bc
       0.18351962 -0.22046119 0.02557481 -0.02789515
000090 c9 61 be 3d 09 1f 4d be 3d 04 7c 3e c0 57 89 3c
       0.09295995 -0.2003137 0.24610992 0.016765475
0000a0 7c 57 52 be f1 72 3c be ff 6a 5e 3e fc d9 48 3e
       -0.20541185 -0.18403222 0.21720503 0.19614404
0000b0 77 bd 9d bd 35 29 8f 3d 49 88 2f be 38 f7 08 be
       -0.07702153 0.069902815 -0.17141832 -0.13375556
0000c0 84 3b 78 3e 46 5b 27 3e 23 f0 0d 3e 0b 56 39 3e
       0.24241453 0.16343412 0.13861136 0.18099229
0000d0 bd 3b 05 be 3d 2e 08 be d2 0e 0b 3e e9 ad 39 be
       -0.1301107 -0.13298889 0.13579872 -0.18132748
0000e0 d9 f2 bc bc 97 6d b5 bd 4d 39 df 3d fa 40 44 3e
       -0.023065018 -0.08858793 0.10899601 0.19165412
0000f0 8b 7d 49 3e ca 06 85 3d 2c 83 86 3e 9e e9 48 3e
       0.19676797 0.064954355 0.2627195 0.19620368
000100 7e 3b 5e 3e a6 96 71 3e 92 fe 09 be 6e af b4 3d
       0.21702382 0.23592624 -0.13476017 0.08822523
000110 76 5b 92 bd 40 7d 1d bd ae ef 7a 3e a1 d0 1a be
       -0.07146351 -0.038449526 0.24505493 -0.15118648
000120 22 fb 55 3e a0 c3 66 be 8c e1 6e 3d 94 5e 79 3e
       0.20896581 -0.22535563 0.058320567 0.24352485
000130 15 48 81 be b5 b7 04 be 00 72 33 bd 6c 78 40 3e
       -0.25250307 -0.12960704 -0.04380989 0.18795937
000140 85 3c fd bd 93 d2 db bd ae 92 2f 3e ae 74 5c 3e
       -0.12365059 -0.10733523 0.17145798 0.21528885
000150 d2 ba fa bd 29 be 5f 3e cb 04 2a be d3 e4 21 be
       -0.122426644 0.21849884 -0.16603391 -0.15809946
000160 7e c7 1c bd 37 e7 2f be 4b e0 18 3c 9b a4 f2 bd
       -0.038276188 -0.17178045 0.009330819 -0.11847802
000170 3b c0 39 be af f4 16 3e 47 5c 1f 3e 85 f6 31 be
       -0.18139736 0.14741777 0.15562545 -0.17379196
000180 1f 59 92 bd 21 31 00 be ff fb 1a be e0 fa 3e 3e
       -0.07145905 -0.12518741 -0.15135191 0.18650389

bn_layers.0.running_mean f4 [100]
000000 be 65 bb 3e 37 14 e6 3e 57 81 c1 3e 07 12 f1 3e
       0.3660106 0.44937298 0.3779399 0.47084066
000010 0d 07 81 3e cc 4c 29 3f 9c ce ba 3e 93 d9 f5 3e
       0.25200692 0.6613281 0.36485755 0.48017558
000020 e0 5e 12 3f bb 34 82 3f f9 b0 55 3f 86 5b f8 3e
       0.5717602 1.0172342 0.83473164 0.48507327
000030 ae 74 0e 3f 47 ef 41 3f 58 7c f1 3e 15 6e 82 3f
       0.5564679 0.75755733 0.4716518 1.0189844
000040 44 ae d2 3e 99 8f ee 3e 4d 63 e9 3e 63 50 2e 3f
       0.4114858 0.4659393 0.45583573 0.6809141
000050 86 2d 7a 3e 06 43 24 3f 5b 80 e3 3e 7c 26 fc 3e
       0.24431428 0.6416477 0.44433865 0.4924811
000060 a1 05 01 3f 1b 83 e8 3e 56 b3 d7 3e a7 da 34 3f
       0.50399214 0.45412526 0.4212901 0.70646137
000070 c6 e9 9d 3e 29 2f 33 3f cb 49 3a 3f d3 0d f5 3e
       0.30842417 0.69993836 0.7276885 0.4786211
000080 3e 66 ca 3e ba 8c 4d 3f 65 50 80 3f 06 b0 bf 3e
       0.3953113 0.80292857 1.0024534 0.37438983
000090 cc ba 26 3f 2d a1 07 3f eb e6 31 3f dc e3 33 3f
       0.6512878 0.5298031 0.6949298 0.7026956
0000a0 35 4e bb 3e 9e d3 ce 3e 9f fe 20 3f be a3 52 3f
       0.36583105 0.40395826 0.6288852 0.822811
0000b0 46 d6 2c 3f 57 e4 35 3f 73 b7 33 3f 8b 7a 2a 3f
       0.67514455 0.71051544 0.70201796 0.66593236
0000c0 31 b9 ab 3e 49 a1 d9 3e b3 b4 28 3f bc 6c 1c 3f
       0.33539727 0.42505863 0.65900725 0.61103415
0000d0 d7 33 03 3f b2 3c 15 3f 0b c1 0b 3f 1e bf dc 3e
       0.51250976 0.5829574 0.54591435 0.4311456
0000e0 17 41 b1 3e 17 64 13 3f be 56 9f 3e a8 0b 7d 3f
       0.34619972 0.575746 0.31120867 0.9884591
0000f0 2b 1f e2 3e 46 9a de 3e 6b dd fe 3e f4 ec 24 3f
       0.44164404 0.43477076 0.49778304 0.6442406
000100 71 6b 15 3f f7 bc 24 3f 8e 27 03 3f 7a 80 cc 3e
       0.5836707 0.6435084 0.5123223 0.3994177
000110 12 52 d4 3e db cb 13 3f ca df d1 3e 20 7c 13 3f
       0.41468865 0.57732934 0.4099105 0.57611275
000120 6b b7 c4 3e f7 c5 23 3f db 13 c1 3e 78 9c fc 3e
       0.38421187 0.63973945 0.3771046 0.49338126
000130 2c 69 16 3f 06 d2 38 3f 24 c5 c9 3e 5b 7e 40 3f
       0.5875423 0.7219547 0.3940822 0.75192803
000140 2c 3a 12 3f e1 ae f1 3e 9a 5d 13 3f d8 96 1d 3f
       0.57120013 0.47203735 0.575647 0.61558294
000150 94 59 12 3f 86 40 50 3f 5f 36 12 3f 06 d4 3f 3f
       0.57167935 0.81348455 0.57114214 0.749329
000160 a7 89 d0 3e 21 f8 fc 3e 8d 9d ba 3e ae 15 95 3e
       0.4073002 0.49408057 0.36448327 0.29118103
000170 e9 b2 1f 3f 73 d7 cc 3e b6 22 21 3f 33 83 1c 3f
       0.6238237 0.40008125 0.6294359 0.61137694
000180 61 19 12 3f 6d ca 12 3f be ac b4 3e 1d 4d 11 3f
       0.57069975 0.5734013 0.35288042 0.5675829

bn_layers.0.running_var f4 [100]
000000 19 c8 ba 3e 35 9a 14 3f 43 87 ba 3e 31 e7 ae 3e
       0.36480787 0.580478 0.36431322 0.3416076
000010 4d b8 a0 3e 48 e7 6d 3f 41 07 dc 3e b9 41 e7 3e
       0.3139061 0.9293103 0.42974284 0.4516733
000020 38 ad 8a 3f 40 e0 9b 3f 75 d6 c0 3f 76 55 f8 3e
       1.0834112 1.2177811 1.5065447 0.48502702
000030 f4 d5 3d 3f c2 ee 9f 3f ab c3 12 3f d8 ea af 3f
       0.7415459 1.2494738 0.57329816 1.3743544
000040 cc 99 16 3f db 24 46 3f 20 93 24 3f 34 f6 ca 3f
       0.58828425 0.77399987 0.64286995 1.5856385
000050 38 95 3f 3e e7 23 0d 3f 84 31 e0 3e b8 c5 0a 3f
       0.18709266 0.5513291 0.43787777 0.54207945
000060 28 b5 17 3f 4d 7f ad 3e b4 bc d3 3e 38 1d 32 3f
       0.592608 0.33886185 0.41354907 0.69575834
000070 b5 35 d8 3e 13 66 1f 3f 4c e1 9e 3f f2 91 56 3f
       0.42228475 0.6226513 1.2412505 0.83816445
000080 6b a7 28 3f 02 78 94 3f fc fc 8b 3f 3c 76 a8 3e
       0.6588046 1.1599123 1.093658 0.32902706
000090 74 a1 6f 3f 87 ef 36 3f 2c 10 0b 3f 72 3e 60 3f
       0.9360573 0.7145924 0.5432155 0.87595284
0000a0 de 97 da 3e 99 43 e9 3e ed a0 76 3f bd 7c bd 3f
       0.4269399 0.45559385 0.96339303 1.4803692
0000b0 3a 4d 52 3f ee 0e 20 3f 1a 98 88 3f df bd 43 3f
       0.8214909 0.6252278 1.0671418 0.76461595
0000c0 1d 45 ba 3e 90 33 16 3f 8b 2a 3d 3f 43 fa 30 3f
       0.36380854 0.5867243 0.7389304 0.6913187
0000d0 bf 68 05 3f 2e 83 5a 3f a8 7c 5a 3f b4 c1 0a 3f
       0.52112955 0.85356414 0.8534646 0.5420182
0000e0 82 07 c1 3e f0 ad 7c 3f cd f3 83 3e 41 c3 c9 3f
       0.3770104 0.9870291 0.25771943 1.5762712
0000f0 d1 39 16 3f b7 b6 c3 3e 4a ee 18 3f 83 6a 4d 3f
       0.5868197 0.38225338 0.597386 0.8024065
000100 08 06 99 3f a7 8d 56 3f fa 0c 45 3f 50 72 15 3f
       1.1954966 0.83809894 0.76972926 0.5837755
000110 88 a5 d7 3e e9 61 2d 3f 8f 23 d5 3e 6d 97 7c 3f
       0.42118478 0.67727524 0.41628692 0.9866856
000120 dc 3e ed 3e 88 74 25 3f a1 41 b2 3e b7 af 02 3f
       0.4633702 0.6463094 0.34815696 0.5104937
000130 f6 6b 46 3f 7e ac 92 3f d8 1f e1 3e 76 08 88 3f
       0.77508485 1.145889 0.43969607 1.0627582
000140 08 22 4f 3f 4b 07 1f 3f 9f 38 73 3f 32 3a 7c 3f
       0.809113 0.62120503 0.9500827 0.985263
000150 77 19 42 3f 0b 46 a1 3f d4 f1 5a 3f e5 62 fd 3f
       0.75820106 1.25995 0.8552525 1.9795805
000160 de d9 49 3f 47 5e 31 3f 0b 8b b2 3e 09 89 94 3e
       0.78848064 0.6928448 0.34871706 0.290108
000170 0d ab 05 3f a1 24 f5 3e 29 e9 5d 3f 88 a7 40 3f
       0.5221413 0.47879508 0.866839 0.7525563
000180 89 02 30 3f 51 c4 1c 3f bc d9 fd 3e 8d 19 2f 3f
       0.6875387 0.61237055 0.4958018 0.6839836
